src/finn/data/onnx/finn-hls-model/tfc_w1_a1_after_conv_to_hls.onnx (onnx, 250099 bytes, 31 tensors)

T9zKUg f4 [64]
0	0x3d7dc3c1	0.061954264
1	0xbd70cc7a	-0.058788754
2	0xbcc837e3	-0.024440711
3	0xbdd2ac57	-0.102867775
4	0xbe1e9478	-0.15486324
5	0xbd1b82d7	-0.037966575
6	0xbcb8736b	-0.022515973
7	0xbe160059	-0.1464857
8	0x3d8f18d7	0.0698716
9	0xbde4f009	-0.111785956
10	0xbd366839	-0.04453299
11	0x3db8ceb4	0.090238005
12	0x3acef7ba	0.0015790381
13	0xbdd75726	-0.10514669
14	0xbd24b5b6	-0.040212356
15	0x3e045f4c	0.12926978
16	0x3dd44f3d	0.10366676
17	0xbcc029a4	-0.023457356
18	0x3dd18e55	0.10232226
19	0xbdd9e815	-0.10639969
20	0xbd3ffb32	-0.046870418
21	0x3d3ef734	0.04662247
22	0xbdced931	-0.1010002
23	0x3dc89867	0.097946934
24	0x3e0499e8	0.12949336
25	0xbd6b7e7a	-0.057493664
26	0xbd318413	-0.043338846
27	0x3d4dcfbc	0.05024694
28	0x3e415ec5	0.18883808
29	0xbd823d8e	-0.06359397
30	0x3d254591	0.040349547
31	0xbdb08276	-0.086186334
32	0x3c0637b8	0.008191995
33	0x3d3f1471	0.046650354
34	0xbe020a10	-0.12699151
35	0x3bab508f	0.005228109
36	0xbe01f7f0	-0.12692237
37	0x3c142fb5	0.009044577
38	0x3b92e015	0.004482279
39	0xbdbd2327	-0.092352204
40	0xbe0e6ea8	-0.139094
41	0xbdcfbe9c	-0.10143778
42	0xbdcfc03d	-0.101440884
43	0x3e0c9e34	0.13732225
44	0xbc5c2afd	-0.013437984
45	0x3d0e7117	0.03477582
46	0xbdc8b836	-0.098007604
47	0x3cc3216d	0.02381965
48	0x3d61cad6	0.05512508
49	0xbd175c99	-0.036953542
50	0x3c9573e2	0.018243734
51	0x3dee7e71	0.116452105
52	0x3db8cee7	0.090238385
53	0xbcab171d	-0.020885045
54	0x3e3abc13	0.18235807
55	0xbe0ee2ec	-0.13953751
56	0xbe819837	-0.25311443
57	0xbd3c16f7	-0.04592034
58	0xbe06ff06	-0.13183221
59	0x3e13dd9d	0.14440008
60	0xbd844377	-0.064581804
61	0xbd0edf3d	-0.034880865
62	0x3dbfa8f4	0.09358397
63	0xbd542f0a	-0.051802672

hUrbAT f4 [64]
0	0xbefeaf03	-0.49742898
1	0x3dd93ee1	0.10607696
2	0xbbf8410f	-0.007576115
3	0x3e358bd9	0.17729129
4	0xbec13876	-0.3773839
5	0x3da90f2b	0.08254846
6	0x3e036d1d	0.12834592
7	0x3e888fe2	0.26672274
8	0x3ea825d3	0.32841358
9	0xbc8c4034	-0.017120458
10	0xbd65194d	-0.05593233
11	0x3e284b06	0.16434869
12	0xbdd04971	-0.10170258
13	0x3eac0441	0.33596995
14	0x3deebdb3	0.11657276
15	0x3d8ddeff	0.06927299
16	0x3f27dabe	0.6556815
17	0x3ef0808e	0.4697308
18	0xbd93574d	-0.07194386
19	0xbeeb32ff	-0.45937344
20	0x3ea0c09e	0.31396955
21	0xbdb180b3	-0.086671256
22	0xbe16337c	-0.14668077
23	0x3cedb8af	0.029018728
24	0x3e66d12f	0.22540735
25	0x3db32623	0.087475084
26	0xbe6e7e06	-0.23290262
27	0x3f12245b	0.57086724
28	0xbc2f106a	-0.010685066
29	0xbf11c65f	-0.56943315
30	0xbdd274a4	-0.10276154
31	0xbe3bd690	-0.18343568
32	0xbe1fb372	-0.15595797
33	0x3cd6ba53	0.026211893
34	0x3e00456d	0.12526484
35	0xbe316d0c	-0.17326754
36	0x3e96475b	0.29351315
37	0x3e3e7eb5	0.18603022
38	0x3de33d16	0.110956356
39	0xbdeed993	-0.11662593
40	0xbc786713	-0.015161294
41	0xbda63fe4	-0.08117655
42	0x3e79ef6f	0.24407743
43	0x3e1e78ac	0.1547572
44	0x3d63b528	0.055592686
45	0x3e9838ad	0.2973074
46	0xbe1441b5	-0.1447819
47	0xbe4312cc	-0.19050139
48	0x3e60a34a	0.2193729
49	0x3c6d3ae2	0.014479371
50	0xbe4602ca	-0.19337001
51	0x3e014493	0.12623815
52	0x3f234cf8	0.6378932
53	0x3cf79c12	0.030225787
54	0xbdf87871	-0.121323474
55	0x3e36a850	0.17837644
56	0xbe1ad3da	-0.15119877
57	0xbdfe3498	-0.12412375
58	0xbe5bd825	-0.21469171
59	0x3ede1fb8	0.43383574
60	0xbee1a568	-0.44071507
61	0xbe6c4575	-0.23073371
62	0x3c88ccf2	0.016699288
63	0x3d6d476a	0.057929434

Pf5K5Y f4 [64]
0	0x3ffc0829	1.968999
1	0x3e0882cd	0.13331147
2	0x3f2a727d	0.66580945
3	0x401dd036	2.4658332
4	0x3f917f08	1.1366892
5	0x3f5bdc08	0.85882616
6	0x3f991fc4	1.1962819
7	0x40182f6b	2.3778942
8	0x3fbab512	1.4586508
9	0x3fcd3677	1.6032246
10	0x3f3b7789	0.7322927
11	0x3fefe462	1.8741572
12	0x3fc6c19e	1.5527837
13	0x3f95bbb0	1.1697903
14	0x3fda7b06	1.7068794
15	0x4048a4b3	3.1350524
16	0x4031ace9	2.7761786
17	0x40a96fc8	5.294895
18	0x3fccc6b6	1.5998142
19	0x403265f6	2.7874732
20	0x3f8b3746	1.0876243
21	0x3e4eb695	0.20186837
22	0x4011131f	2.266792
23	0x4066db4b	3.6071346
24	0x3fd1d5bf	1.6393355
25	0x4056a33d	3.3537133
26	0x3fad66ee	1.3547037
27	0x3fa40eed	1.2817055
28	0x3fb81011	1.4379903
29	0x4024a62a	2.5726418
30	0x400033d8	2.0031643
31	0x404ce6bd	3.2015831
32	0x3fa91550	1.3209629
33	0x3fd595b2	1.6686308
34	0x400625c8	2.096056
35	0x3fb7a57a	1.4347374
36	0x3fbcabc2	1.4739916
37	0x3f974eef	1.1820964
38	0x40738ac4	3.8053446
39	0x3f6a0a8c	0.91422343
40	0x3fb314fc	1.3990779
41	0x3fcc333c	1.5953135
42	0x40148589	2.3206503
43	0x3ff704f4	1.9298387
44	0x3fb2a2a1	1.395588
45	0x400c4180	2.1914978
46	0x3fc86d7e	1.5658414
47	0x3fb8d2a3	1.4439281
48	0x40242501	2.5647585
49	0x3fd7f163	1.687054
50	0x3f57ca3a	0.8429295
51	0x3fee0c1a	1.8597443
52	0x401ac445	2.4182293
53	0x3fbdcbfe	1.4827878
54	0x4043e904	3.0610971
55	0x3fe163cc	1.760858
56	0x40230f85	2.5478222
57	0x3fa5e877	1.2961568
58	0x4005dd9a	2.0916505
59	0x40090d7e	2.1414485
60	0x400acf7e	2.1689143
61	0x3fb54be2	1.4163783
62	0x3fbd529f	1.4790839
63	0x3f537922	0.8260671

7NZs3S f4 [64]
0	0x3f8079a2	1.0037119
1	0xbf10052a	-0.5625788
2	0x3f1ea9ff	0.61978143
3	0x3f6d6d83	0.92745227
4	0x3f79f416	0.9763807
5	0xbf30c5c9	-0.69051796
6	0xbf44f17c	-0.76930976
7	0xbf923253	-1.1421608
8	0x3f3864ac	0.72028613
9	0x3f5c2e66	0.860083
10	0xbf0383f3	-0.51373214
11	0x3f6bc7f6	0.9210199
12	0x3f4e8a77	0.8068003
13	0xbf4f995a	-0.8109337
14	0x3f3b42c2	0.7314874
15	0x3f88ec7b	1.0697168
16	0x3f81f47d	1.0152737
17	0x3f9d9978	1.231246
18	0x3f7538bd	0.957897
19	0x3f8b89d3	1.0901436
20	0x3f1f0eaa	0.6213175
21	0xbf3c05b4	-0.734462
22	0x3f842a35	1.032538
23	0x3f89b2bf	1.0757674
24	0x3f4297f2	0.760131
25	0x3f97ca8d	1.1858689
26	0x3f50a20e	0.81497276
27	0x3f437b9f	0.76360506
28	0x3f8f47a6	1.119374
29	0x3f56a6bc	0.83848166
30	0xbf6bf507	-0.9217076
31	0x3f690466	0.91022336
32	0x3f27f6d7	0.6561102
33	0x3f595a51	0.84903437
34	0x3f851eb0	1.039999
35	0x3f4969a4	0.7867682
36	0xbf4c96e4	-0.7991774
37	0xbf391bc8	-0.72308016
38	0x3f900aea	1.1253331
39	0x3f046248	0.51712465
40	0x3f5cd667	0.8626465
41	0xbf6a1540	-0.91438675
42	0xbf7a32aa	-0.9773356
43	0x3f6a24a2	0.9146215
44	0x3f59f031	0.8513213
45	0x3f7166f5	0.94297725
46	0x3f68fc08	0.9100957
47	0xbf84cdd2	-1.0375311
48	0x3f75b961	0.9598599
49	0xbf8edee4	-1.1161771
50	0x3f1a57d4	0.60290265
51	0x3f537336	0.8259767
52	0x3f855ccf	1.0418948
53	0x3f54ea5b	0.831701
54	0xbf6bd4f4	-0.92121816
55	0x3f60ab6a	0.8776156
56	0x3f9b0139	1.2109748
57	0x3f2ee5a5	0.6831916
58	0x3f593e46	0.84860647
59	0x3f8a521a	1.0806305
60	0x3f7f3843	0.99695224
61	0x3f5185c2	0.81844723
62	0x3f53cdab	0.827357
63	0x3f4d57f2	0.8021232

2dT06y f4 [64]
0	0x3f206143	0.6264841
1	0x3f213a26	0.6297935
2	0x3ebc6277	0.36793873
3	0x3f232f2c	0.63743854
4	0xbf27b580	-0.6551132
5	0x3eac1c5f	0.33615395
6	0xbdee6e4e	-0.11642133
7	0x3ddb5ef5	0.10711471
8	0xbe9e8e2f	-0.30967852
9	0xbdbb4e19	-0.09145755
10	0x3ec45656	0.3834712
11	0xbed97fef	-0.42480418
12	0x3f49e32d	0.7886227
13	0x3e9ec936	0.31012887
14	0x3e86270c	0.26201665
15	0xbf011f7d	-0.5043867
16	0xbed6a30a	-0.41921264
17	0x3ed08c5c	0.40732086
18	0x3d973e01	0.07384873
19	0xbf827621	-1.01923
20	0xbf0f3f90	-0.55956364
21	0xbdddca37	-0.10829585
22	0xbe832fa9	-0.256223
23	0xbf5e771b	-0.8690049
24	0x3f997f57	1.1991986
25	0x3ecd1de6	0.40061873
26	0xbea5a52b	-0.32352576
27	0x3ec5a70b	0.38604006
28	0x3ed0a400	0.40750122
29	0xbf7e4610	-0.99325657
30	0x3f28ba92	0.65909684
31	0xbf63b7b5	-0.8895219
32	0xbf07fd49	-0.5312086
33	0x3f11a1c3	0.56887454
34	0x3cb206e1	0.021731796
35	0x3e52ca18	0.20584905
36	0x3f613272	0.879676
37	0x3ec5a3b9	0.38601473
38	0x3f44775f	0.76744646
39	0x3f82fcd1	1.0233403
40	0x3f003ac4	0.5008967
41	0x3d25c617	0.040472116
42	0x3f50a482	0.8150102
43	0x3c8563c0	0.016282916
44	0x3f1e0b3b	0.61735886
45	0xbe03aee1	-0.1285968
46	0x3f13cf09	0.57737786
47	0xbdcee07d	-0.101014115
48	0x3f4ebedb	0.8075997
49	0x3ef5823f	0.47950932
50	0x3da3a2d0	0.079900384
51	0x3f2f90ec	0.6858051
52	0xbfaccc15	-1.3499781
53	0x3f5daf54	0.86595654
54	0x3e05bef0	0.13061118
55	0x3f4c7a0e	0.7987374
56	0xbf96b3fc	-1.1773677
57	0xbf416abc	-0.7555349
58	0xbf593127	-0.84840626
59	0xbf27670a	-0.653916
60	0x3f26e3b0	0.65191174
61	0x3f5d7f18	0.86522055
62	0xbe102964	-0.1407829
63	0xbdaecd69	-0.08535273

sjnwXR f4 [64]
0	0xbd9a4c1d	-0.07534049
1	0x3e4a0b25	0.19730814
2	0x3f9fdb6a	1.2488835
3	0xc0012298	-2.0177364
4	0x40160284	2.3439035
5	0x3fb5497f	1.4163054
6	0xbf1eafd0	-0.6198702
7	0xbf68f8e5	-0.9100478
8	0xbffd96f6	-1.9811695
9	0xbf98fce1	-1.1952173
10	0xbe50c491	-0.20387484
11	0x3f727dd7	0.94723266
12	0xbe99acaf	-0.3001456
13	0x3fba64f9	1.4562064
14	0xbf3a8ee3	-0.7287428
15	0x401ab449	2.4172537
16	0x3f10a2f1	0.5649863
17	0xbf90dd3a	-1.1317513
18	0x3f2cc006	0.67480505
19	0x3fd61217	1.672427
20	0xbf7edde3	-0.9955732
21	0x3f9b1258	1.2114973
22	0x3ef96f7e	0.48717874
23	0x400a4ae3	2.1608207
24	0x3e32e7bb	0.1747121
25	0x3f476d66	0.77901304
26	0xbecb8587	-0.3975031
27	0xbf5a2e33	-0.85226744
28	0xbfc79e43	-1.5595173
29	0xbe8ce803	-0.2752076
30	0xc03df9eb	-2.9683788
31	0x3e3b8339	0.18311776
32	0xbea41af5	-0.32051817
33	0xbf9bbb8b	-1.2166609
34	0xbe838387	-0.25686285
35	0xbeb74dbd	-0.35801497
36	0xbeb8812f	-0.3603606
37	0xbf07a2dd	-0.52982885
38	0xc0299f02	-2.65033
39	0x3f055bc0	0.52093124
40	0xbf2b7a5f	-0.669836
41	0xbf9f83fe	-1.2462156
42	0xbf14f308	-0.58183336
43	0x3f7cecc8	0.987988
44	0xbf987881	-1.1911775
45	0x3ecc8235	0.3994309
46	0xc08273b5	-4.0766244
47	0x3f5ad00d	0.8547371
48	0x3d7e687a	0.062111355
49	0xbf1d24f3	-0.61384505
50	0x3efb95ee	0.49137825
51	0xbfbd09b0	-1.4768581
52	0x3ff6fcbc	1.9295878
53	0xbe958ff3	-0.29211387
54	0x3e1eddac	0.15514249
55	0x3e4df752	0.20113876
56	0x3f343ac9	0.704022
57	0x3fb33232	1.3999693
58	0xbfbdd9b5	-1.4832064
59	0x3ed21109	0.41028622
60	0xbfa82c8b	-1.3138593
61	0xbfd349eb	-1.6506933
62	0x3edbc387	0.42922613
63	0x3fc46de8	1.5346041

cEDYKg f4 [64]
0	0x3fb22877	1.3918599
1	0x3f95a5b8	1.1691198
2	0x3f12fc8b	0.574166
3	0x3fec36ac	1.8454185
4	0x3fc318bd	1.5241925
5	0x3fcf9abb	1.6219095
6	0x3f18dc4a	0.59711134
7	0x3f564307	0.83696026
8	0x3fdf30be	1.743675
9	0x3e877f5e	0.2646436
10	0x3f86b48b	1.0523847
11	0x3f11be9a	0.5693146
12	0x3fadaa85	1.3567663
13	0x3fc80f42	1.5629656
14	0x3f366aa4	0.7125647
15	0x3fa07562	1.2535822
16	0x3f87a8c0	1.0598373
17	0x3f209e10	0.62741184
18	0x3ed23b76	0.4106099
19	0x3fc76a6c	1.5579352
20	0x3f9041ef	1.1270121
21	0x3f6bb8a3	0.9207861
22	0x3f3f9158	0.7483115
23	0x3fb6217c	1.4228969
24	0x400a7c3e	2.1638331
25	0x3f8dc1aa	1.1074727
26	0x3f731137	0.9494814
27	0x3f24474c	0.6417129
28	0x3fed7fac	1.8554587
29	0x4000e974	2.0142488
30	0x3fcf13a3	1.6177868
31	0x3fae4c92	1.3617117
32	0x3fb82a50	1.4387913
33	0x3f63ce1e	0.88986385
34	0x3f744236	0.9541353
35	0x3f851438	1.0396795
36	0x3f9fa8ca	1.2473385
37	0x3faadf19	1.3349334
38	0x3fb336e8	1.4001131
39	0x3fc6bcbb	1.5526346
40	0x401424c8	2.314745
41	0x3f5f0b67	0.87126774
42	0x3fabd007	1.342286
43	0x3f16e060	0.5893612
44	0x3fda9638	1.7077093
45	0x3ef089b1	0.4698005
46	0x3fd815bd	1.6881634
47	0x3fc73c14	1.5565209
48	0x3fa49480	1.2857819
49	0x3f6e6803	0.9312746
50	0x3f16d4d1	0.5891848
51	0x3fc02da8	1.5013933
52	0x4005ddc7	2.0916612
53	0x3fccfb9f	1.6014289
54	0x3eb1e423	0.34744367
55	0x3f8e51d5	1.1118723
56	0x3f97c1e8	1.185605
57	0x3fe6f94d	1.804483
58	0x3fcba54a	1.5909817
59	0x3faa2d75	1.3295122
60	0x3fe222a2	1.7666819
61	0x3fb49441	1.4107744
62	0x3f50a95e	0.81508434
63	0x3f7146ba	0.94248545

9gAmqr f4 [64]
0	0x3fb9d838	1.451911
1	0x3fd730e9	1.6811801
2	0x3f755408	0.95831347
3	0x3fc9a90b	1.5754713
4	0x3fce138b	1.6099714
5	0x3fafda9f	1.3738593
6	0x3f91810c	1.1367507
7	0x3f8f08a1	1.1174508
8	0x3fb7cc16	1.4359157
9	0x3f5bcb4b	0.85857075
10	0x3fa2ffd4	1.2734323
11	0x3f943ae9	1.1580478
12	0x3fbcb5b9	1.4742957
13	0x3faae99d	1.3352543
14	0x3f9573eb	1.1676
15	0x3fd7e868	1.68678
16	0x3f93b0d8	1.1538343
17	0x3f84d174	1.037642
18	0x3f45183d	0.7699011
19	0x3fd1244d	1.6339203
20	0x3fc5cf3b	1.5453867
21	0x3f8f81bc	1.1211467
22	0x3f8e1ea3	1.11031
23	0x3fb3b770	1.4040356
24	0x3feca9e6	1.8489349
25	0x3f9d305a	1.2280381
26	0x3fb398d3	1.4031013
27	0x3fa0806c	1.2539191
28	0x3fc46c32	1.5345519
29	0x3fcd2e79	1.6029807
30	0x3fc3aba8	1.528676
31	0x3fbe520b	1.4868788
32	0x3fa52b2e	1.2903802
33	0x3fa341de	1.2754476
34	0x3f9072df	1.1285056
35	0x3fa90a97	1.3206357
36	0x3fbbe428	1.4679003
37	0x3fc3654f	1.5265292
38	0x3fb6936e	1.4263742
39	0x3fb236d9	1.3922988
40	0x3fcce4c8	1.6007318
41	0x3f9d108d	1.2270676
42	0x3fb83c4b	1.43934
43	0x3f7f5359	0.99736553
44	0x3fc57842	1.5427325
45	0x3f5e2882	0.8678056
46	0x3fc71a13	1.5554832
47	0x3fce9aa3	1.6140941
48	0x3fbd8365	1.4805723
49	0x3fb7ddb1	1.436453
50	0xbf6d8923	-0.9278738
51	0x3fe3b81b	1.779056
52	0x3fdf8d22	1.7464945
53	0x3fc864a8	1.5655718
54	0x3f471fc7	0.77782863
55	0x3fb01ecb	1.3759397
56	0x3fbafefc	1.4609065
57	0x3ff21074	1.8911271
58	0x3fae0365	1.3594786
59	0x3fe0a6b8	1.7550879
60	0x3fcc041e	1.5938756
61	0x3fbf4019	1.4941436
62	0x3f929541	1.1451799
63	0x3fa2c584	1.2716527

vjKBFW f4 [64]
0	0x3ee0d4eb	0.43912444
1	0xbda00fc6	-0.078155085
2	0x3e982fd7	0.29724
3	0x3e005855	0.12533696
4	0xbe203613	-0.15645628
5	0xbeb5e4e4	-0.35526192
6	0x3f1ad8c0	0.60486984
7	0x3f8daf9e	1.1069219
8	0x3c98aa56	0.01863591
9	0x3e74a4ec	0.23891038
10	0xbf04c89a	-0.51868594
11	0xbf3e4946	-0.74330556
12	0x3f946b5d	1.1595265
13	0x3f06d397	0.5266661
14	0xbc0231de	-0.00794646
15	0xbe2d9eb4	-0.16955072
16	0x3e6a10d6	0.22857985
17	0x3ec2a529	0.38016632
18	0xbe5359a2	-0.20639661
19	0xbf424290	-0.75882816
20	0xbf3c10e4	-0.73463273
21	0x3dec0c9f	0.11525845
22	0xbf7d65df	-0.9898357
23	0x3ea18a69	0.3155091
24	0xbf787679	-0.97055775
25	0xbd290e77	-0.04127356
26	0xbf2a3ab2	-0.6649581
27	0xbd5fd478	-0.054645985
28	0x3e3d33a3	0.18476729
29	0x3f6f3582	0.9344102
30	0xbcbf2702	-0.02333403
31	0x3df99bdf	0.12187933
32	0x3ea22dc1	0.31675532
33	0x3f0c87a8	0.54894495
34	0x3e5ffe52	0.21874359
35	0x3f240da5	0.6408332
36	0xbe9950e3	-0.29944524
37	0x3f37c95d	0.7179163
38	0xbf654b21	-0.8956776
39	0xbd3f81ea	-0.046754755
40	0xbe862d67	-0.26206514
41	0x3dee736e	0.1164311
42	0x3ed8dc03	0.42355356
43	0x3f056659	0.52109295
44	0xbee68841	-0.45025828
45	0x3e274e99	0.16338576
46	0xbcbe985e	-0.023266014
47	0xbe91b841	-0.28460887
48	0x3f0ea442	0.5571939
49	0x3cbf27be	0.02333438
50	0xbfca811b	-1.582065
51	0x3ebe88f9	0.37213877
52	0x3f1ada04	0.60488915
53	0x3ae3657f	0.0017348974
54	0xbe2074ae	-0.1566951
55	0x3f11178e	0.56676567
56	0x3f275258	0.6536002
57	0xbf578855	-0.841924
58	0xbe9699da	-0.29414254
59	0xbc0d079e	-0.008607773
60	0xbe44c530	-0.19215846
61	0x3f5c9d0b	0.8617713
62	0x3e49cada	0.19706288
63	0x3cedf314	0.029046573

7xWD4L f4 [64]
0	0x3f301e49	0.6879621
1	0xbeefe5e0	-0.46855068
2	0xbf32fd7d	-0.6991804
3	0x3e6f8839	0.23391809
4	0xbf8bbee5	-1.0917631
5	0x3f42719c	0.75954604
6	0xbe4806f1	-0.19533898
7	0xba11db1c	-0.0005563961
8	0xbf08b14d	-0.5339554
9	0x3efe8256	0.49708813
10	0xbe92aa6c	-0.28645647
11	0xbe837a1d	-0.25679103
12	0x3f6a64fa	0.9156033
13	0xbf5ad23c	-0.8547704
14	0x3e4cc519	0.19997062
15	0xbe255e12	-0.16149166
16	0xbf822559	-1.0167648
17	0x3eb8eb3f	0.3611698
18	0x3e8568d7	0.2605655
19	0xbf438101	-0.7636872
20	0xbe99e82f	-0.30059955
21	0x3f124b8c	0.57146525
22	0xbf566621	-0.83749586
23	0x3d81ce69	0.06338198
24	0x3e0e346a	0.13887182
25	0xbec0a997	-0.37629387
26	0xbe7783b7	-0.24171339
27	0xbf12c0d5	-0.5732549
28	0x3eda6de5	0.42661968
29	0xbe20b215	-0.15692933
30	0xbdca3647	-0.09873634
31	0xbf08c51e	-0.53425777
32	0xbe19cd5b	-0.15019743
33	0x3d83d5e4	0.06437281
34	0xbf0c17ed	-0.5472401
35	0x3e4233a3	0.1896501
36	0x3f2e69de	0.6813029
37	0xbfa786bf	-1.3087996
38	0xbe253fde	-0.16137645
39	0xbef3c9e5	-0.4761497
40	0xbe70c817	-0.23513828
41	0x3e6b1109	0.22955717
42	0x3f0c8cf1	0.5490256
43	0x3ec2634b	0.3796638
44	0xbecb96ce	-0.39763492
45	0x3ecf1982	0.40449148
46	0xbf1990be	-0.59986484
47	0xbea7d06c	-0.327762
48	0x3f28d837	0.6595492
49	0xbf2d64bc	-0.67731833
50	0xbd777f7b	-0.06042431
51	0x3f0a6dbc	0.5407369
52	0x3f383725	0.71959144
53	0xbf3712dd	-0.7151316
54	0x3f48a74c	0.78380275
55	0x3ed80503	0.42191324
56	0x3f2d2077	0.6762766
57	0x3ddc416b	0.10754665
58	0xbc395af3	-0.011313188
59	0xbe2ec94d	-0.17068978
60	0xbf69fd71	-0.91402346
61	0x3eca0460	0.39456463
62	0xbe7a9407	-0.2447053
63	0x3e29b97b	0.16574661

xxmAlI f4 [64]
0	0x40404659	3.0042937
1	0x405b0507	3.4221818
2	0x4096546a	4.6978045
3	0x4020a21d	2.5098946
4	0x4049a7e5	3.1508725
5	0x406a7160	3.6631699
6	0x408834fb	4.2564673
7	0x4082ded9	4.089703
8	0x3fbbb6d8	1.4665174
9	0x4064b6cc	3.573657
10	0x409401c4	4.6252155
11	0x40868045	4.203158
12	0x407c38d0	3.9409676
13	0x40681ce2	3.6267629
14	0x3fe8772d	1.816137
15	0x4058c46d	3.3869889
16	0x404ed7a7	3.2319124
17	0x4074b29c	3.8234015
18	0x405ffdbf	3.4998624
19	0x4061fa0e	3.5308871
20	0x4048daab	3.1383464
21	0x40196751	2.396931
22	0x40ab635b	5.3558784
23	0x409abb1e	4.8353415
24	0x40b7bbb4	5.741663
25	0x402ef0e5	2.733453
26	0x408b51f8	4.353756
27	0x4035676d	2.8344376
28	0x403ea6f7	2.9789407
29	0x408b1822	4.346696
30	0x4021a241	2.5255282
31	0x4020722e	2.506969
32	0x40605a09	3.5054953
33	0x406f0e05	3.7352307
34	0x401f8208	2.4923115
35	0x405def06	3.4677138
36	0x405c88f0	3.445858
37	0x40411eef	3.017513
38	0x40c01b16	6.0033064
39	0x404074fb	3.00714
40	0x40596cce	3.397266
41	0x4033f369	2.8117316
42	0x4047dc03	3.1228034
43	0x40947d99	4.6403317
44	0x403344c6	2.8010726
45	0x409ff80b	4.9990287
46	0x3fdb8893	1.7151054
47	0x4047c1b5	3.121198
48	0x40c79179	6.236508
49	0x404b5341	3.1769564
50	0x40171af9	2.3610213
51	0x4061c819	3.527838
52	0x40716693	3.7718856
53	0x4097f7d2	4.7490015
54	0x409524b4	4.6607304
55	0x408d46a4	4.414873
56	0x40669377	3.6027505
57	0x40a72bb7	5.2240863
58	0x4083ab85	4.1146874
59	0x401579a2	2.3355489
60	0x40667947	3.6011522
61	0x4086ee65	4.216601
62	0x405cdce7	3.4509828
63	0x40258627	2.586313

tIt1un f4 [64]
0	0x3f6bc5f2	0.92098916
1	0xbf8554cf	-1.0416507
2	0x3fa521b7	1.2900914
3	0x3f711c9c	0.9418428
4	0x3f6eb600	0.9324646
5	0x3f7f35a0	0.996912
6	0x3f96ac15	1.1771265
7	0x3fac5859	1.3464462
8	0x3f6eeda4	0.9333136
9	0x3f8ec06e	1.1152475
10	0x3f894b70	1.0726147
11	0x3f9291f3	1.145079
12	0x3f9347a6	1.150624
13	0x3f888c42	1.0667803
14	0x3f3cf020	0.738039
15	0x3f6f532e	0.934863
16	0x3f6b9df0	0.9203787
17	0x3fa1d2e3	1.2642483
18	0x3f7a2eca	0.97727644
19	0x3f8cc579	1.0997764
20	0x3f8a9ab7	1.0828465
21	0x3f789e2f	0.9711637
22	0x3faa7e23	1.3319744
23	0x3f92cc35	1.1468569
24	0x3f9b5aa4	1.2137036
25	0x3f836ef8	1.026824
26	0x3f9ca5a0	1.2238045
27	0x3f70d294	0.94071317
28	0x3f842785	1.032456
29	0x3f9ca22e	1.2236993
30	0x3f766315	0.9624494
31	0x3f5e02a6	0.8672279
32	0x3f841051	1.0317479
33	0x3f8ff178	1.1245565
34	0x3f606ab9	0.87662846
35	0x3f918a70	1.1370373
36	0x3f8bbb93	1.0916618
37	0x3f85f701	1.0466005
38	0x3f984b1c	1.1897922
39	0x3f80049a	1.0001404
40	0x3f822c6d	1.0169808
41	0x3f897b5b	1.074077
42	0x3f827db2	1.0194609
43	0x3f89aec1	1.0756456
44	0x3f82f69d	1.023151
45	0x3f9811d5	1.1880442
46	0x3f576cd8	0.8415046
47	0x3f7dc1ad	0.9912365
48	0x3fa82436	1.3136051
49	0x3f6a99e3	0.9164106
50	0x3fb0ab37	1.3802251
51	0x3f8bd5fc	1.0924678
52	0x3f9b1917	1.2117032
53	0x3f8b2128	1.0869493
54	0x3f820b52	1.0159705
55	0x3f99a6f1	1.2004071
56	0x3f94b8d3	1.1618904
57	0x3f9c81a3	1.2227062
58	0x3f8786c3	1.0588001
59	0x3f844d9a	1.0336182
60	0x3f73fce5	0.9530776
61	0x3f92878b	1.1447614
62	0xbf8765ec	-1.0577979
63	0x3f7a56a7	0.9778847

yIMU7L f4 [64]
0	0x3f9d8682	1.2306674
1	0x3fc704aa	1.5548298
2	0x3fa1e175	1.2646929
3	0x3f947279	1.1597434
4	0x3fa6eb5d	1.3040577
5	0x3f8a1509	1.078767
6	0x3fbc4c17	1.4710721
7	0x3f9c5843	1.2214435
8	0x3f8b3062	1.087414
9	0x3fd59f61	1.6689264
10	0x3f9ee3d5	1.2413279
11	0x3fc473b7	1.5347813
12	0x3fa2026e	1.2656991
13	0x3f88b590	1.0680408
14	0x3fb10c10	1.3831806
15	0x3fc0d642	1.5065386
16	0x3f8f75d7	1.1207837
17	0x3fa7adba	1.3099892
18	0x3f99c9f3	1.2014755
19	0x3fa78ece	1.3090456
20	0x3fba5446	1.4556968
21	0x3f958d2d	1.1683708
22	0x3fa44a23	1.2835125
23	0x3f96a921	1.1770364
24	0x3fa0e2db	1.2569231
25	0x3f955dd5	1.166926
26	0x3fb84fdb	1.439937
27	0x3fc85b88	1.5652933
28	0x3f903327	1.126561
29	0x3f909221	1.1294595
30	0x3f99d683	1.2018589
31	0x3fa31863	1.2741817
32	0x3f89b2a8	1.0757647
33	0x3fad108d	1.3520676
34	0x3f93e105	1.1553046
35	0x3fa5c890	1.2951832
36	0x3fa83bca	1.3143246
37	0x3fa91d97	1.3212155
38	0x3f9a4c4b	1.2054533
39	0x3f8f05ef	1.1173686
40	0x3f86abee	1.0521219
41	0x3fa84478	1.3145895
42	0x3f9f04e2	1.2423365
43	0x3fa64a9b	1.2991518
44	0x3f971c15	1.1805445
45	0x3fa20ee7	1.2660798
46	0x3f993cf4	1.1971726
47	0x3fa59990	1.2937489
48	0x3fa72144	1.3057027
49	0x3fbe8752	1.4885046
50	0xbf9aba6a	-1.2088139
51	0x3fb9d853	1.4519142
52	0x3f9a9266	1.2075927
53	0x3f9e5a82	1.2371371
54	0x3fa8e7f9	1.3195792
55	0x3fa70641	1.3048784
56	0x3fabbc55	1.3416849
57	0x3fb43305	1.407807
58	0x3f89f55e	1.0778005
59	0x3fc2d514	1.5221276
60	0x3f997dcb	1.1991514
61	0x3fa10461	1.2579461
62	0x3fa25c3a	1.2684395
63	0x3fa7a9e4	1.3098722

XpwFFY f4 [64]
0	0x3f381db3	0.7192032
1	0x3ea561f4	0.32301295
2	0xbf9b12ef	-1.2115153
3	0x403e8f48	2.9774952
4	0xc06d8c79	-3.7116988
5	0xbf9889f0	-1.1917095
6	0x3f4ba2c4	0.79545236
7	0x3f9bfded	1.2186867
8	0x3fec1e3e	1.8446729
9	0x3ff39e6a	1.9032719
10	0x3f22f4ba	0.63654673
11	0xbff075f0	-1.8785992
12	0x3f9591f4	1.1685166
13	0xbf9f6160	-1.2451591
14	0x3fa28f58	1.2699995
15	0xc084aca1	-4.146073
16	0xbf86b65b	-1.05244
17	0x3ff1e856	1.8899028
18	0xbf3ca655	-0.736913
19	0xc04d5848	-3.2085133
20	0x3f63c2aa	0.8896891
21	0xbfc30b06	-1.5237739
22	0xbf61ab7e	-0.881523
23	0xc05a6444	-3.4123697
24	0x3f7ac6ff	0.97959894
25	0xbf022897	-0.50843185
26	0x3e7ed37e	0.24885365
27	0x3fdc2bdd	1.7200886
28	0x400a8568	2.1643925
29	0xbf2eb320	-0.68242073
30	0x408740e0	4.2266693
31	0xbf8fb975	-1.1228472
32	0xbe3ee156	-0.18640646
33	0x400db03f	2.2138822
34	0x3ea310ad	0.3184866
35	0x3f2b673c	0.669544
36	0x3fad3928	1.3533068
37	0x3f8b0320	1.0860329
38	0x407d9640	3.9622955
39	0x3ee1ede6	0.44126815
40	0x3f9a529a	1.2056458
41	0x3fd6e0c2	1.6787341
42	0x3fc4d80a	1.537843
43	0xbfa235b0	-1.2672634
44	0x4001829d	2.023597
45	0xbf226205	-0.63430816
46	0x40aea64e	5.457801
47	0xbf9a7962	-1.2068293
48	0x3f39fbf4	0.72650075
49	0x3fb2550d	1.3932205
50	0x3f2c83be	0.6738852
51	0x40351ff9	2.8300765
52	0xc06b8752	-3.6801343
53	0x3f9d1986	1.2273414
54	0xbd97c7d6	-0.074111626
55	0x3f09495e	0.53627574
56	0xc007cdec	-2.1219435
57	0xc02e7db0	-2.7264214
58	0x3f400cbd	0.7501944
59	0xbfa3a366	-1.278424
60	0x400e8e2e	2.227428
61	0x403c44e0	2.9417038
62	0xbf2f6b40	-0.68523026
63	0xc0061c79	-2.0954878

UDe5v8 f4 [64]
0	0x3f0806b5	0.53135234
1	0xbf1025ff	-0.5630798
2	0x3f185fe4	0.5952132
3	0x3f1830f8	0.5944972
4	0x3f067ac3	0.5253107
5	0x3f05579c	0.52086806
6	0x3f120fef	0.5705556
7	0x3f2a71bf	0.6657981
8	0x3f454c43	0.7706949
9	0x3f1706e0	0.58994865
10	0x3eff5b4f	0.4987435
11	0x3f0efbdf	0.55853075
12	0x3f1460ef	0.5796041
13	0x3f0f66e0	0.5601635
14	0x3f0c32da	0.54765093
15	0x3f020a81	0.5079728
16	0x3f030fd1	0.5119601
17	0x3f2584c3	0.64655703
18	0x3f05bb12	0.5223857
19	0x3f15d4c0	0.58527756
20	0x3f1c7a98	0.61124563
21	0x3f2095a4	0.62728333
22	0x3f1356fd	0.5755461
23	0x3f05843e	0.5215491
24	0x3f01ab0e	0.50651634
25	0x3f1efe56	0.62106836
26	0x3f1625e2	0.58651555
27	0x3f0f0ab3	0.558757
28	0x3f19230c	0.598191
29	0x3f1641c7	0.5869412
30	0x3f1b09fa	0.605621
31	0x3f0c3752	0.5477191
32	0x3f0d1238	0.55105925
33	0x3f14f516	0.5818647
34	0x3f0e26f5	0.55528194
35	0x3f1c4fe2	0.6105939
36	0x3f168ca0	0.58808327
37	0x3f1a3d4f	0.602498
38	0x3ef8a018	0.48559642
39	0x3f13a587	0.5767445
40	0x3f0d3fe7	0.5517563
41	0x3f23fa92	0.64054215
42	0x3f13af76	0.5768961
43	0x3effa92b	0.49933752
44	0x3f1c8039	0.6113315
45	0x3f080740	0.5313606
46	0x3f247e6f	0.6425542
47	0x3f0fa231	0.5610686
48	0x3f06a892	0.5260097
49	0x3f039ede	0.5141429
50	0x3f65f3f5	0.89825374
51	0x3f14e64f	0.58163923
52	0x3f1fb80b	0.623902
53	0x3eff5fe5	0.4987785
54	0x3ef0f2ba	0.47060186
55	0x3f124120	0.5713062
56	0x3f1cb4e7	0.61213535
57	0x3f08f2c0	0.5349541
58	0x3f059fc9	0.5219694
59	0x3f2d2496	0.6763395
60	0x3f009278	0.50223494
61	0x3f0eb757	0.55748504
62	0xbf11c555	-0.5694173
63	0x3f1ba9ce	0.60805976

F1pv3R f4 [64]
0	0x3d96ae0c	0.073574156
1	0xbeaf18da	-0.34198648
2	0x3f36a179	0.7134014
3	0xbc60e5e0	-0.0137266815
4	0x3ed588b4	0.4170586
5	0xbf403a03	-0.7508852
6	0x3f3760da	0.7163216
7	0x3f8dbbc2	1.1072924
8	0x3edc3cf6	0.4301526
9	0xbd5e9a00	-0.054346085
10	0xbec06b2c	-0.37581766
11	0xbf1991ba	-0.59987986
12	0x3f20fb99	0.6288391
13	0x3f80b37b	1.0054773
14	0xbdf08f29	-0.11746056
15	0xbdb33c4c	-0.08751735
16	0x3f3fc684	0.74912286
17	0x3e162b46	0.14664945
18	0xbeaf5dc6	-0.3425123
19	0xbe9fac02	-0.3118592
20	0xbf0d074c	-0.5508926
21	0xbe790c9c	-0.24321216
22	0xbf020060	-0.5078182
23	0x3e909d96	0.2824523
24	0xbf853c2a	-1.0408986
25	0x3e450c8a	0.19243065
26	0xbf05efbe	-0.5231894
27	0x3e880523	0.2656642
28	0xbd903f0e	-0.07043277
29	0x3f8364f5	1.0265185
30	0x3d1559fc	0.03646277
31	0x3ed439ad	0.41450253
32	0x3ecc8e48	0.39952302
33	0x3f02f0ec	0.5114887
34	0x3f05ca2c	0.52261615
35	0x3f0668a1	0.525034
36	0xbf333a48	-0.70010805
37	0x3fc0d3dc	1.5064654
38	0xbf513b7a	-0.8173138
39	0x3e6954a6	0.22786197
40	0xbe07807f	-0.13232611
41	0xbcfac1b0	-0.030609936
42	0x3ddac5f0	0.10682285
43	0x3ea9bc04	0.33151257
44	0xbe5424c5	-0.20717151
45	0xbd5320f0	-0.051545084
46	0x3eb96f9d	0.36217967
47	0xbdce420a	-0.1007119
48	0x3e574f9c	0.21026462
49	0x3ebe3ec9	0.37157276
50	0xbfc38e94	-1.5277886
51	0x3d6c0828	0.057624966
52	0x3e1fad52	0.1559346
53	0x3eb783c3	0.35842714
54	0xbf068ab7	-0.5255541
55	0x3ea6c54c	0.325724
56	0x3e7560e2	0.23962739
57	0xbf6642c8	-0.8994565
58	0xbe9393da	-0.2882374
59	0x3ddacd14	0.10683647
60	0x3e88a699	0.26689604
61	0x3f244d7e	0.64180744
62	0x3d6c6f6c	0.057723448
63	0xbd92eafe	-0.071737275

1j3nzV f4 [64]
0	0x3f371d94	0.7152951
1	0xbfc5376e	-1.5407541
2	0x3f427252	0.7595569
3	0x3f1732ef	0.59062093
4	0x3f6a714a	0.91579115
5	0xbf3ebf77	-0.745109
6	0xbf340fee	-0.70336807
7	0xbf3d9d24	-0.740679
8	0x3f18accb	0.5963866
9	0x3f2de494	0.6792691
10	0xbf19af5a	-0.6003319
11	0x3f2c3a7a	0.6727673
12	0x3f25bf92	0.6474544
13	0xbf3ff117	-0.7497725
14	0x3f0f5512	0.5598918
15	0x3f1aa9a9	0.6041513
16	0x3f1bfd9d	0.6093386
17	0x3f08fac3	0.5350763
18	0x3f41e019	0.7573257
19	0x3f27277f	0.6529464
20	0x3f1883cc	0.59576106
21	0xbfd13c2c	-1.6346488
22	0x3f2f90c6	0.6858028
23	0x3f1100bb	0.5664174
24	0x3f17fb7b	0.59368104
25	0x3f25c5d0	0.6475496
26	0x3f334003	0.7001955
27	0x3f2cab1f	0.6744861
28	0x3f6ef73d	0.93346006
29	0x3f05d3a8	0.52276087
30	0xbf26b6f3	-0.6512291
31	0x3f023a68	0.5087037
32	0x3f1223e7	0.5708603
33	0x3f2842da	0.6572701
34	0x3f37e52d	0.7183407
35	0x3f28269d	0.6568392
36	0xbf288367	-0.65825504
37	0xbf2a411b	-0.66505593
38	0x3f13ae3d	0.5768774
39	0x3f0a7451	0.54083735
40	0x3f3ab3dd	0.729307
41	0xbf395475	-0.72394496
42	0xbf243d57	-0.641561
43	0x3f288be7	0.65838474
44	0x3f387b51	0.72063166
45	0x3f23117f	0.6369857
46	0x3f3a3022	0.72729695
47	0xbf5d09b6	-0.8634294
48	0x3f196f4c	0.5993545
49	0xbf5bfe00	-0.8593445
50	0x3f281bb5	0.6566728
51	0x3f1b0d8d	0.6056755
52	0x3f2b850f	0.66999906
53	0x3f2ed9a8	0.6830087
54	0xbf06caae	-0.52653015
55	0x3f294f30	0.66136456
56	0x3f4237d4	0.75866437
57	0x3f199f1c	0.60008407
58	0x3f1635ed	0.58676034
59	0x3f3d0b34	0.7384522
60	0x3f2d4c24	0.67694306
61	0x3f300d28	0.68770075
62	0x3f2e2796	0.68029153
63	0x3f61eda8	0.8825326

vPCOJq f4 [64]
0	0x3ed5e500	0.41776276
1	0x3dd6529d	0.10464976
2	0xbc9913d8	-0.01868622
3	0xbe548fc8	-0.20757973
4	0x3e4351c4	0.1907416
5	0x3cc0d91e	0.02354103
6	0x3d8ac4f1	0.06775845
7	0x3d512f08	0.051070243
8	0xbe01037c	-0.12598985
9	0xbdcd1ee2	-0.10015656
10	0xbd9ff8a2	-0.07811095
11	0xbca68bf8	-0.020330414
12	0x3d8a1712	0.067426816
13	0x3e1646c5	0.14675434
14	0xbdd80628	-0.10548049
15	0x3db3086c	0.08741841
16	0xbe977ba7	-0.29586527
17	0xbe8cb27a	-0.27479917
18	0x3e209210	0.15680718
19	0x3e463112	0.19354656
20	0xbe6f890e	-0.23392126
21	0xbdc2abfc	-0.0950546
22	0xb9d4eb00	-0.0004061088
23	0x3da6eed5	0.08151022
24	0xbb8dc720	-0.004326716
25	0xbde9c140	-0.11413813
26	0x3df53976	0.119738504
27	0xbeab6a42	-0.33479506
28	0x3e4b956a	0.19881216
29	0x3e6fb38f	0.2340834
30	0xbcd9ad02	-0.026571754
31	0x3be992a0	0.0071280748
32	0x3dc71c70	0.09722221
33	0x3cf10689	0.029422062
34	0xbe5e2e86	-0.21697435
35	0x3df3c9af	0.119037025
36	0x3d87bffa	0.066284135
37	0x3e07f392	0.13276508
38	0xbd73d177	-0.059525933
39	0xbcefd560	-0.02927655
40	0xbe031c11	-0.12803675
41	0xbe240cd0	-0.16020513
42	0x3d61e49e	0.055149667
43	0x3d1121a2	0.035432465
44	0xbd5b22a4	-0.053499833
45	0xbe1e50b5	-0.15460475
46	0x3beef050	0.007291831
47	0xbe100a72	-0.14066485
48	0xbd9c6117	-0.07635706
49	0xbcc8cad2	-0.024510775
50	0x3e14b5bf	0.14522456
51	0x3d23cf70	0.03999275
52	0xbeac9eda	-0.33714944
53	0xbd2a1adc	-0.04152952
54	0x3df2a463	0.118477605
55	0xbe83d844	-0.25750935
56	0xbe0dba1f	-0.13840531
57	0x3ce9ffc6	0.028564345
58	0xbbc00220	-0.0058596283
59	0xbe3430a9	-0.17596687
60	0x3e6f5e0c	0.2337572
61	0x3dfd882c	0.12379488
62	0x3da864d7	0.08222359
63	0xbdd2cb8a	-0.10292728

NfQnfP f4 [1, 64]
0	0x3f800000	1.0
1	0x3f800000	1.0
2	0x3f800000	1.0
3	0x3f800000	1.0
4	0x3f800000	1.0
5	0x3f800000	1.0
6	0x3f800000	1.0
7	0x3f800000	1.0
8	0x3f800000	1.0
9	0x3f800000	1.0
10	0x3f800000	1.0
11	0x3f800000	1.0
12	0x3f800000	1.0
13	0x3f800000	1.0
14	0x3f800000	1.0
15	0x3f800000	1.0
16	0x3f800000	1.0
17	0x3f800000	1.0
18	0x3f800000	1.0
19	0x3f800000	1.0
20	0x3f800000	1.0
21	0x3f800000	1.0
22	0x3f800000	1.0
23	0x3f800000	1.0
24	0x3f800000	1.0
25	0x3f800000	1.0
26	0x3f800000	1.0
27	0x3f800000	1.0
28	0x3f800000	1.0
29	0x3f800000	1.0
30	0x3f800000	1.0
31	0x3f800000	1.0
32	0x3f800000	1.0
33	0x3f800000	1.0
34	0x3f800000	1.0
35	0x3f800000	1.0
36	0x3f800000	1.0
37	0x3f800000	1.0
38	0x3f800000	1.0
39	0x3f800000	1.0
40	0x3f800000	1.0
41	0x3f800000	1.0
42	0x3f800000	1.0
43	0x3f800000	1.0
44	0x3f800000	1.0
45	0x3f800000	1.0
46	0x3f800000	1.0
47	0x3f800000	1.0
48	0x3f800000	1.0
49	0x3f800000	1.0
50	0xbf800000	-1.0
51	0x3f800000	1.0
52	0x3f800000	1.0
53	0x3f800000	1.0
54	0x3f800000	1.0
55	0x3f800000	1.0
56	0x3f800000	1.0
57	0x3f800000	1.0
58	0x3f800000	1.0
59	0x3f800000	1.0
60	0x3f800000	1.0
61	0x3f800000	1.0
62	0x3f800000	1.0
63	0x3f800000	1.0

CVOAgW f4 [1, 64]
0	0x3d1c9377	0.03822657
1	0x3d11b9cf	0.03557759
2	0x3ccbcb6a	0.024877269
3	0x3d074024	0.033020154
4	0x3d02fb48	0.03197792
5	0x3d0ad20d	0.033891726
6	0x3d066fd0	0.032821476
7	0x3cf4eab7	0.029897077
8	0x3d0be2bf	0.03415179
9	0x3cd4a4a8	0.02595742
10	0x3cf98853	0.030460512
11	0x3ce50052	0.027954254
12	0x3d07526d	0.03303759
13	0x3cff9026	0.031196665
14	0x3cfa0761	0.030521097
15	0x3d0d1232	0.03444118
16	0x3cfe1a29	0.031018334
17	0x3cdf7843	0.027279025
18	0x3cb0f2ac	0.02160009
19	0x3d05109a	0.032486536
20	0x3d167e11	0.03674132
21	0x3ce6f567	0.028193189
22	0x3ce3f3cf	0.027826218
23	0x3d09c405	0.033634204
24	0x3d1a7c52	0.037716217
25	0x3cec0a46	0.028813493
26	0x3cf4b584	0.02987171
27	0x3d001ffe	0.03128051
28	0x3d00deda	0.031462528
29	0x3d17386d	0.036919046
30	0x3d072dc8	0.033002645
31	0x3d112a3d	0.035440672
32	0x3d067cdb	0.032833915
33	0x3ce84ad9	0.028356003
34	0x3cf75d0f	0.030195741
35	0x3d068b01	0.03284741
36	0x3d0e1f37	0.034697738
37	0x3d1b8193	0.03796537
38	0x3ceaf797	0.028682513
39	0x3d10e560	0.035375
40	0x3d0d72ce	0.034533314
41	0x3cf2575b	0.02958267
42	0x3d02932d	0.03187864
43	0x3ccf4fea	0.02530666
44	0x3d10aa65	0.03531875
45	0x3cc50e52	0.02405468
46	0x3d0cd787	0.03438523
47	0x3d09c7e0	0.03363788
48	0x3d1357b8	0.035972327
49	0x3d13845d	0.036014903
50	0x3ccf96d2	0.025340471
51	0x3d1012d6	0.035174213
52	0x3d172325	0.03689875
53	0x3d172b1f	0.036906358
54	0x3cacd3a3	0.02109701
55	0x3d0dd70b	0.03462891
56	0x3d1900c4	0.037354246
57	0x3d0c9f5b	0.03433166
58	0x3d11a59b	0.035558324
59	0x3d118220	0.035524487
60	0x3d072f37	0.033004012
61	0x3d0df093	0.034653258
62	0x3d0accac	0.033886597
63	0x3cfff1ef	0.031243293

LSRoNW f4 [1, 64]
0	0x3f800000	1.0
1	0xbf800000	-1.0
2	0x3f800000	1.0
3	0x3f800000	1.0
4	0x3f800000	1.0
5	0x3f800000	1.0
6	0x3f800000	1.0
7	0x3f800000	1.0
8	0x3f800000	1.0
9	0x3f800000	1.0
10	0x3f800000	1.0
11	0x3f800000	1.0
12	0x3f800000	1.0
13	0x3f800000	1.0
14	0x3f800000	1.0
15	0x3f800000	1.0
16	0x3f800000	1.0
17	0x3f800000	1.0
18	0x3f800000	1.0
19	0x3f800000	1.0
20	0x3f800000	1.0
21	0x3f800000	1.0
22	0x3f800000	1.0
23	0x3f800000	1.0
24	0x3f800000	1.0
25	0x3f800000	1.0
26	0x3f800000	1.0
27	0x3f800000	1.0
28	0x3f800000	1.0
29	0x3f800000	1.0
30	0x3f800000	1.0
31	0x3f800000	1.0
32	0x3f800000	1.0
33	0x3f800000	1.0
34	0x3f800000	1.0
35	0x3f800000	1.0
36	0x3f800000	1.0
37	0x3f800000	1.0
38	0x3f800000	1.0
39	0x3f800000	1.0
40	0x3f800000	1.0
41	0x3f800000	1.0
42	0x3f800000	1.0
43	0x3f800000	1.0
44	0x3f800000	1.0
45	0x3f800000	1.0
46	0x3f800000	1.0
47	0x3f800000	1.0
48	0x3f800000	1.0
49	0x3f800000	1.0
50	0x3f800000	1.0
51	0x3f800000	1.0
52	0x3f800000	1.0
53	0x3f800000	1.0
54	0x3f800000	1.0
55	0x3f800000	1.0
56	0x3f800000	1.0
57	0x3f800000	1.0
58	0x3f800000	1.0
59	0x3f800000	1.0
60	0x3f800000	1.0
61	0x3f800000	1.0
62	0xbf800000	-1.0
63	0x3f800000	1.0

WwT4we f4 [1, 64]
0	0x3d9d4020	0.076782465
1	0x3da66a71	0.08125771
2	0x3dafdfa6	0.085875794
3	0x3d9a9adc	0.07549068
4	0x3da34d7e	0.07973765
5	0x3d9a73d5	0.075416245
6	0x3da90db7	0.08254569
7	0x3dc15dc5	0.09441713
8	0x3dab1842	0.08354236
9	0x3db173b0	0.08664644
10	0x3d9e3076	0.07724087
11	0x3da5dc58	0.08098668
12	0x3dbc2030	0.09185827
13	0x3da55f00	0.080747604
14	0x3d9366d8	0.0719735
15	0x3d9c163b	0.076214276
16	0x3d8b74ca	0.06809385
17	0x3da93387	0.08261781
18	0x3da33358	0.079687774
19	0x3daa7f1a	0.08325024
20	0x3d9b6618	0.07587832
21	0x3db2fe79	0.08739943
22	0x3db4aa70	0.08821571
23	0x3da32e98	0.079678714
24	0x3dab36aa	0.08360036
25	0x3db42192	0.087954655
26	0x3dad8355	0.08472315
27	0x3d9902ce	0.07471238
28	0x3d8d95b9	0.06913323
29	0x3dadbe69	0.084835835
30	0x3d9aaff3	0.07553091
31	0x3d9e6917	0.07734888
32	0x3db2ac75	0.087243
33	0x3dacde49	0.08440835
34	0x3d94bea6	0.07262926
35	0x3dba35e3	0.09092309
36	0x3d9aaba8	0.07552272
37	0x3dae5714	0.085127026
38	0x3dba02e8	0.090825856
39	0x3d98cc2c	0.07460818
40	0x3d90f15e	0.07077287
41	0x3d9ad9c6	0.07561068
42	0x3da3759b	0.07981416
43	0x3d97f8af	0.074204795
44	0x3da41936	0.08012621
45	0x3d9ee421	0.07758356
46	0x3da1b956	0.07896678
47	0x3d9e8a00	0.07741165
48	0x3dbcc6a3	0.092175744
49	0x3d83dc66	0.06438522
50	0x3dc60711	0.096693166
51	0x3da4d31e	0.0804808
52	0x3dc28420	0.09497857
53	0x3d9d7eaa	0.07690175
54	0x3da01a10	0.07817471
55	0x3d95cc24	0.07314327
56	0x3daf127e	0.08548449
57	0x3db1e68c	0.086865515
58	0x3d967569	0.07346613
59	0x3d9b0e4f	0.075710885
60	0x3d9b9d73	0.075983904
61	0x3d8e7dd7	0.06957596
62	0x3da4125c	0.08011314
63	0x3da02a85	0.0782061

mB9n3Q f4 [1, 64]
0	0x3f800000	1.0
1	0xbf800000	-1.0
2	0x3f800000	1.0
3	0x3f800000	1.0
4	0x3f800000	1.0
5	0xbf800000	-1.0
6	0xbf800000	-1.0
7	0xbf800000	-1.0
8	0x3f800000	1.0
9	0x3f800000	1.0
10	0xbf800000	-1.0
11	0x3f800000	1.0
12	0x3f800000	1.0
13	0xbf800000	-1.0
14	0x3f800000	1.0
15	0x3f800000	1.0
16	0x3f800000	1.0
17	0x3f800000	1.0
18	0x3f800000	1.0
19	0x3f800000	1.0
20	0x3f800000	1.0
21	0xbf800000	-1.0
22	0x3f800000	1.0
23	0x3f800000	1.0
24	0x3f800000	1.0
25	0x3f800000	1.0
26	0x3f800000	1.0
27	0x3f800000	1.0
28	0x3f800000	1.0
29	0x3f800000	1.0
30	0xbf800000	-1.0
31	0x3f800000	1.0
32	0x3f800000	1.0
33	0x3f800000	1.0
34	0x3f800000	1.0
35	0x3f800000	1.0
36	0xbf800000	-1.0
37	0xbf800000	-1.0
38	0x3f800000	1.0
39	0x3f800000	1.0
40	0x3f800000	1.0
41	0xbf800000	-1.0
42	0xbf800000	-1.0
43	0x3f800000	1.0
44	0x3f800000	1.0
45	0x3f800000	1.0
46	0x3f800000	1.0
47	0xbf800000	-1.0
48	0x3f800000	1.0
49	0xbf800000	-1.0
50	0x3f800000	1.0
51	0x3f800000	1.0
52	0x3f800000	1.0
53	0x3f800000	1.0
54	0xbf800000	-1.0
55	0x3f800000	1.0
56	0x3f800000	1.0
57	0x3f800000	1.0
58	0x3f800000	1.0
59	0x3f800000	1.0
60	0x3f800000	1.0
61	0x3f800000	1.0
62	0x3f800000	1.0
63	0x3f800000	1.0

UwTue2 f4 [1, 64]
0	0x3d6f6937	0.05844995
1	0x3d24770c	0.040152594
2	0x3d42b5dd	0.04753672
3	0x3d66c63e	0.056341402
4	0x3d926612	0.071483746
5	0x3d37fa7d	0.04491662
6	0x3d54980a	0.05190281
7	0x3d8db999	0.069201656
8	0x3d5a0d4b	0.053235333
9	0x3d8de78e	0.06928931
10	0x3d31081e	0.04322063
11	0x3d5ae109	0.053437266
12	0x3d700fb1	0.058608714
13	0x3d5b2380	0.053500652
14	0x3d65a38c	0.056064174
15	0x3d6ef32a	0.058337368
16	0x3d7f2c80	0.062298298
17	0x3d9bd190	0.0760833
18	0x3d8270ec	0.063691944
19	0x3d8357aa	0.06413205
20	0x3d5ed3a7	0.054401066
21	0x3d5fc3fa	0.054630257
22	0x3d85e1d2	0.065372124
23	0x3d889f04	0.06670955
24	0x3d3f46ea	0.04669849
25	0x3d9039bb	0.07042261
26	0x3d8d1f65	0.06890754
27	0x3d74da64	0.059778586
28	0x3d9171a9	0.07101757
29	0x3d64e79f	0.055884954
30	0x3d88d55c	0.0668132
31	0x3d4f509a	0.050613977
32	0x3d3e57dd	0.04647051
33	0x3d70bc30	0.05877322
34	0x3d8aaa54	0.06770769
35	0x3d5f2d51	0.054486576
36	0x3d6552f4	0.055987313
37	0x3d5552c7	0.052080896
38	0x3d810733	0.06300201
39	0x3d146732	0.036231227
40	0x3d826678	0.063672006
41	0x3d721e46	0.059110902
42	0x3d6c9237	0.05775663
43	0x3d64f69c	0.055899248
44	0x3d7e7056	0.06211885
45	0x3d8dfbfc	0.06932828
46	0x3d781bc8	0.06057337
47	0x3d770b97	0.060313787
48	0x3d76688a	0.06015829
49	0x3d85fab8	0.065419614
50	0x3d478a01	0.048715595
51	0x3d645efb	0.055754643
52	0x3d89d981	0.06730939
53	0x3d689496	0.056782328
54	0x3d5edb64	0.054408446
55	0x3d86d7f8	0.065841615
56	0x3d9eb688	0.07749659
57	0x3d40b33c	0.04704593
58	0x3d691f9b	0.056914907
59	0x3d764eb4	0.06013365
60	0x3d88c3f2	0.066779986
61	0x3d68d117	0.05684003
62	0x3d55a589	0.05215982
63	0x3d5e16ef	0.05422109

MatMul_0_param0 f4 [784, 64]
0	0x00000000	0.0
1	0x3f800000	1.0
2	0x00000000	0.0
3	0x00000000	0.0
4	0x00000000	0.0
5	0x3f800000	1.0
6	0x00000000	0.0
7	0x3f800000	1.0
8	0x00000000	0.0
9	0x00000000	0.0
10	0x00000000	0.0
11	0x3f800000	1.0
12	0x3f800000	1.0
13	0x00000000	0.0
14	0x00000000	0.0
15	0x00000000	0.0
16	0x3f800000	1.0
17	0x3f800000	1.0
18	0x3f800000	1.0
19	0x3f800000	1.0
20	0x3f800000	1.0
21	0x00000000	0.0
22	0x3f800000	1.0
23	0x00000000	0.0
24	0x00000000	0.0
25	0x3f800000	1.0
26	0x00000000	0.0
27	0x00000000	0.0
28	0x3f800000	1.0
29	0x3f800000	1.0
30	0x00000000	0.0
31	0x3f800000	1.0
32	0x3f800000	1.0
33	0x00000000	0.0
34	0x3f800000	1.0
35	0x3f800000	1.0
36	0x3f800000	1.0
37	0x00000000	0.0
38	0x00000000	0.0
39	0x00000000	0.0
40	0x3f800000	1.0
41	0x00000000	0.0
42	0x3f800000	1.0
43	0x3f800000	1.0
44	0x00000000	0.0
45	0x00000000	0.0
46	0x3f800000	1.0
47	0x3f800000	1.0
48	0x3f800000	1.0
49	0x3f800000	1.0
50	0x00000000	0.0
51	0x3f800000	1.0
52	0x00000000	0.0
53	0x00000000	0.0
54	0x3f800000	1.0
55	0x3f800000	1.0
56	0x3f800000	1.0
57	0x3f800000	1.0
58	0x3f800000	1.0
59	0x3f800000	1.0
60	0x3f800000	1.0
61	0x00000000	0.0
62	0x00000000	0.0
63	0x00000000	0.0
64	0x00000000	0.0
65	0x00000000	0.0
66	0x00000000	0.0
67	0x3f800000	1.0
68	0x00000000	0.0
69	0x00000000	0.0
70	0x3f800000	1.0
71	0x00000000	0.0
72	0x3f800000	1.0
73	0x3f800000	1.0
74	0x3f800000	1.0
75	0x3f800000	1.0
76	0x00000000	0.0
77	0x3f800000	1.0
78	0x3f800000	1.0
79	0x00000000	0.0
80	0x00000000	0.0
81	0x3f800000	1.0
82	0x00000000	0.0
83	0x00000000	0.0
84	0x00000000	0.0
85	0x3f800000	1.0
86	0x3f800000	1.0
87	0x3f800000	1.0
88	0x00000000	0.0
89	0x00000000	0.0
90	0x00000000	0.0
91	0x3f800000	1.0
92	0x3f800000	1.0
93	0x3f800000	1.0
94	0x00000000	0.0
95	0x00000000	0.0
96	0x00000000	0.0
97	0x3f800000	1.0
98	0x00000000	0.0
99	0x00000000	0.0
100	0x3f800000	1.0
101	0x3f800000	1.0
102	0x3f800000	1.0
103	0x3f800000	1.0
104	0x00000000	0.0
105	0x00000000	0.0
106	0x3f800000	1.0
107	0x3f800000	1.0
108	0x00000000	0.0
109	0x00000000	0.0
110	0x00000000	0.0
111	0x00000000	0.0
112	0x00000000	0.0
113	0x3f800000	1.0
114	0x00000000	0.0
115	0x3f800000	1.0
116	0x3f800000	1.0
117	0x3f800000	1.0
118	0x3f800000	1.0
119	0x3f800000	1.0
120	0x3f800000	1.0
121	0x00000000	0.0
122	0x3f800000	1.0
123	0x3f800000	1.0
124	0x00000000	0.0
125	0x00000000	0.0
126	0x00000000	0.0
127	0x00000000	0.0
128	0x3f800000	1.0
129	0x00000000	0.0
130	0x00000000	0.0
131	0x3f800000	1.0
132	0x00000000	0.0
133	0x3f800000	1.0
134	0x3f800000	1.0
135	0x3f800000	1.0
136	0x3f800000	1.0
137	0x3f800000	1.0
138	0x00000000	0.0
139	0x3f800000	1.0
140	0x3f800000	1.0
141	0x3f800000	1.0
142	0x00000000	0.0
143	0x00000000	0.0
144	0x00000000	0.0
145	0x00000000	0.0
146	0x3f800000	1.0
147	0x3f800000	1.0
148	0x00000000	0.0
149	0x00000000	0.0
150	0x3f800000	1.0
151	0x00000000	0.0
152	0x00000000	0.0
153	0x00000000	0.0
154	0x00000000	0.0
155	0x3f800000	1.0
156	0x00000000	0.0
157	0x3f800000	1.0
158	0x3f800000	1.0
159	0x3f800000	1.0
160	0x3f800000	1.0
161	0x3f800000	1.0
162	0x00000000	0.0
163	0x3f800000	1.0
164	0x00000000	0.0
165	0x00000000	0.0
166	0x00000000	0.0
167	0x3f800000	1.0
168	0x3f800000	1.0
169	0x00000000	0.0
170	0x00000000	0.0
171	0x3f800000	1.0
172	0x00000000	0.0
173	0x3f800000	1.0
174	0x00000000	0.0
175	0x3f800000	1.0
176	0x00000000	0.0
177	0x00000000	0.0
178	0x3f800000	1.0
179	0x00000000	0.0
180	0x3f800000	1.0
181	0x00000000	0.0
182	0x00000000	0.0
183	0x00000000	0.0
184	0x3f800000	1.0
185	0x3f800000	1.0
186	0x3f800000	1.0
187	0x00000000	0.0
188	0x3f800000	1.0
189	0x3f800000	1.0
190	0x3f800000	1.0
191	0x3f800000	1.0
192	0x3f800000	1.0
193	0x00000000	0.0
194	0x00000000	0.0
195	0x00000000	0.0
196	0x3f800000	1.0
197	0x3f800000	1.0
198	0x3f800000	1.0
199	0x00000000	0.0
200	0x3f800000	1.0
201	0x3f800000	1.0
202	0x00000000	0.0
203	0x3f800000	1.0
204	0x3f800000	1.0
205	0x3f800000	1.0
206	0x00000000	0.0
207	0x3f800000	1.0
208	0x3f800000	1.0
209	0x3f800000	1.0
210	0x3f800000	1.0
211	0x00000000	0.0
212	0x00000000	0.0
213	0x00000000	0.0
214	0x3f800000	1.0
215	0x00000000	0.0
216	0x00000000	0.0
217	0x00000000	0.0
218	0x3f800000	1.0
219	0x00000000	0.0
220	0x00000000	0.0
221	0x00000000	0.0
222	0x3f800000	1.0
223	0x3f800000	1.0
224	0x3f800000	1.0
225	0x3f800000	1.0
226	0x00000000	0.0
227	0x3f800000	1.0
228	0x3f800000	1.0
229	0x3f800000	1.0
230	0x3f800000	1.0
231	0x3f800000	1.0
232	0x3f800000	1.0
233	0x3f800000	1.0
234	0x3f800000	1.0
235	0x00000000	0.0
236	0x3f800000	1.0
237	0x00000000	0.0
238	0x3f800000	1.0
239	0x3f800000	1.0
240	0x00000000	0.0
241	0x3f800000	1.0
242	0x00000000	0.0
243	0x00000000	0.0
244	0x3f800000	1.0
245	0x3f800000	1.0
246	0x3f800000	1.0
247	0x00000000	0.0
248	0x3f800000	1.0
249	0x00000000	0.0
250	0x3f800000	1.0
251	0x00000000	0.0
252	0x3f800000	1.0
253	0x3f800000	1.0
254	0x00000000	0.0
255	0x00000000	0.0

MatMul_1_param0 f4 [64, 64]
0	0x3f800000	1.0
1	0x00000000	0.0
2	0x00000000	0.0
3	0x3f800000	1.0
4	0x00000000	0.0
5	0x00000000	0.0
6	0x00000000	0.0
7	0x00000000	0.0
8	0x00000000	0.0
9	0x3f800000	1.0
10	0x00000000	0.0
11	0x3f800000	1.0
12	0x3f800000	1.0
13	0x3f800000	1.0
14	0x00000000	0.0
15	0x3f800000	1.0
16	0x3f800000	1.0
17	0x3f800000	1.0
18	0x00000000	0.0
19	0x00000000	0.0
20	0x3f800000	1.0
21	0x3f800000	1.0
22	0x3f800000	1.0
23	0x00000000	0.0
24	0x3f800000	1.0
25	0x3f800000	1.0
26	0x3f800000	1.0
27	0x00000000	0.0
28	0x00000000	0.0
29	0x00000000	0.0
30	0x3f800000	1.0
31	0x00000000	0.0
32	0x3f800000	1.0
33	0x00000000	0.0
34	0x3f800000	1.0
35	0x00000000	0.0
36	0x00000000	0.0
37	0x00000000	0.0
38	0x00000000	0.0
39	0x00000000	0.0
40	0x3f800000	1.0
41	0x3f800000	1.0
42	0x00000000	0.0
43	0x00000000	0.0
44	0x00000000	0.0
45	0x00000000	0.0
46	0x00000000	0.0
47	0x3f800000	1.0
48	0x3f800000	1.0
49	0x00000000	0.0
50	0x00000000	0.0
51	0x3f800000	1.0
52	0x3f800000	1.0
53	0x3f800000	1.0
54	0x00000000	0.0
55	0x00000000	0.0
56	0x3f800000	1.0
57	0x3f800000	1.0
58	0x3f800000	1.0
59	0x3f800000	1.0
60	0x00000000	0.0
61	0x00000000	0.0
62	0x00000000	0.0
63	0x00000000	0.0
64	0x00000000	0.0
65	0x00000000	0.0
66	0x00000000	0.0
67	0x3f800000	1.0
68	0x00000000	0.0
69	0x3f800000	1.0
70	0x3f800000	1.0
71	0x3f800000	1.0
72	0x00000000	0.0
73	0x3f800000	1.0
74	0x00000000	0.0
75	0x3f800000	1.0
76	0x3f800000	1.0
77	0x00000000	0.0
78	0x3f800000	1.0
79	0x3f800000	1.0
80	0x00000000	0.0
81	0x00000000	0.0
82	0x00000000	0.0
83	0x00000000	0.0
84	0x3f800000	1.0
85	0x3f800000	1.0
86	0x3f800000	1.0
87	0x00000000	0.0
88	0x3f800000	1.0
89	0x00000000	0.0
90	0x00000000	0.0
91	0x00000000	0.0
92	0x00000000	0.0
93	0x3f800000	1.0
94	0x00000000	0.0
95	0x00000000	0.0
96	0x3f800000	1.0
97	0x00000000	0.0
98	0x00000000	0.0
99	0x00000000	0.0
100	0x00000000	0.0
101	0x00000000	0.0
102	0x00000000	0.0
103	0x3f800000	1.0
104	0x00000000	0.0
105	0x3f800000	1.0
106	0x00000000	0.0
107	0x3f800000	1.0
108	0x3f800000	1.0
109	0x3f800000	1.0
110	0x00000000	0.0
111	0x3f800000	1.0
112	0x3f800000	1.0
113	0x00000000	0.0
114	0x00000000	0.0
115	0x3f800000	1.0
116	0x00000000	0.0
117	0x3f800000	1.0
118	0x00000000	0.0
119	0x00000000	0.0
120	0x3f800000	1.0
121	0x00000000	0.0
122	0x3f800000	1.0
123	0x3f800000	1.0
124	0x3f800000	1.0
125	0x00000000	0.0
126	0x00000000	0.0
127	0x00000000	0.0
128	0x3f800000	1.0
129	0x00000000	0.0
130	0x3f800000	1.0
131	0x00000000	0.0
132	0x00000000	0.0
133	0x3f800000	1.0
134	0x00000000	0.0
135	0x00000000	0.0
136	0x3f800000	1.0
137	0x3f800000	1.0
138	0x3f800000	1.0
139	0x00000000	0.0
140	0x00000000	0.0
141	0x00000000	0.0
142	0x3f800000	1.0
143	0x00000000	0.0
144	0x00000000	0.0
145	0x00000000	0.0
146	0x3f800000	1.0
147	0x00000000	0.0
148	0x00000000	0.0
149	0x00000000	0.0
150	0x00000000	0.0
151	0x3f800000	1.0
152	0x3f800000	1.0
153	0x3f800000	1.0
154	0x3f800000	1.0
155	0x00000000	0.0
156	0x3f800000	1.0
157	0x00000000	0.0
158	0x00000000	0.0
159	0x00000000	0.0
160	0x3f800000	1.0
161	0x3f800000	1.0
162	0x3f800000	1.0
163	0x00000000	0.0
164	0x3f800000	1.0
165	0x3f800000	1.0
166	0x3f800000	1.0
167	0x00000000	0.0
168	0x3f800000	1.0
169	0x00000000	0.0
170	0x00000000	0.0
171	0x00000000	0.0
172	0x00000000	0.0
173	0x00000000	0.0
174	0x3f800000	1.0
175	0x00000000	0.0
176	0x00000000	0.0
177	0x00000000	0.0
178	0x00000000	0.0
179	0x3f800000	1.0
180	0x3f800000	1.0
181	0x00000000	0.0
182	0x00000000	0.0
183	0x3f800000	1.0
184	0x00000000	0.0
185	0x3f800000	1.0
186	0x3f800000	1.0
187	0x00000000	0.0
188	0x3f800000	1.0
189	0x3f800000	1.0
190	0x3f800000	1.0
191	0x3f800000	1.0
192	0x00000000	0.0
193	0x3f800000	1.0
194	0x3f800000	1.0
195	0x00000000	0.0
196	0x00000000	0.0
197	0x3f800000	1.0
198	0x3f800000	1.0
199	0x00000000	0.0
200	0x00000000	0.0
201	0x3f800000	1.0
202	0x00000000	0.0
203	0x00000000	0.0
204	0x3f800000	1.0
205	0x00000000	0.0
206	0x3f800000	1.0
207	0x00000000	0.0
208	0x00000000	0.0
209	0x3f800000	1.0
210	0x3f800000	1.0
211	0x00000000	0.0
212	0x00000000	0.0
213	0x00000000	0.0
214	0x00000000	0.0
215	0x3f800000	1.0
216	0x00000000	0.0
217	0x00000000	0.0
218	0x00000000	0.0
219	0x00000000	0.0
220	0x3f800000	1.0
221	0x00000000	0.0
222	0x3f800000	1.0
223	0x3f800000	1.0
224	0x3f800000	1.0
225	0x00000000	0.0
226	0x00000000	0.0
227	0x00000000	0.0
228	0x3f800000	1.0
229	0x00000000	0.0
230	0x3f800000	1.0
231	0x3f800000	1.0
232	0x3f800000	1.0
233	0x00000000	0.0
234	0x00000000	0.0
235	0x3f800000	1.0
236	0x00000000	0.0
237	0x3f800000	1.0
238	0x3f800000	1.0
239	0x3f800000	1.0
240	0x3f800000	1.0
241	0x00000000	0.0
242	0x00000000	0.0
243	0x3f800000	1.0
244	0x3f800000	1.0
245	0x3f800000	1.0
246	0x00000000	0.0
247	0x3f800000	1.0
248	0x3f800000	1.0
249	0x3f800000	1.0
250	0x3f800000	1.0
251	0x00000000	0.0
252	0x00000000	0.0
253	0x3f800000	1.0
254	0x00000000	0.0
255	0x3f800000	1.0
