notebooks/end2end_example/cybersecurity/state_dict.pth (torch_old, 599154 bytes, 45 tensors)

0.weight f4 [64, 593]
-8.344194 -12.849878 14.155503 4.6057663 -4.2976217 -14.346717 -3.4152615 -6.6122346
-8.987374 -3.0766246 -1.1421725 1.9586718 -5.997791 0.579543 -0.91590893 8.592704
6.343614 8.750811 4.1373625 8.488655 13.7509365 2.0842023 -2.0279243 -5.1375847
-0.5059052 -10.228798 -6.734579 -14.460176 5.516718 12.980916 -19.059336 5.6555886
1.2672355 4.2767367 -0.17696537 -7.2893343 -13.906483 -9.209871 25.756657 -15.719341
21.692904 -6.860895 -3.2639182 -11.072416 -14.478834 0.7172987 -4.7524624 2.3359666
-4.486204 5.3024635 13.8215275 -0.59222245 -10.513929 7.141196 2.416436 -21.29887
-7.2219386 -0.5116924 -13.405342 7.371066 9.767988 -1.9117146 -4.3489404 13.017724
12.541305 -0.82855624 -2.4071417 -5.588965 13.756254 6.1315393 -8.510729 -13.378655
1.686635 -16.89022 -16.5817 -8.097611 -15.980666 -5.847021 -10.520055 -5.009294
-13.991217 -1.6879203 -7.1947274 -5.832644 1.411824 -1.9843743 21.893467 -6.8354015
-13.342623 -14.636674 1.5272853 2.6345701 26.154573 -8.967668 -4.834643 -1.0202674
-10.355281 12.753364 14.64329 -10.549107 -23.789022 -4.5220246 8.718557 5.3645954
15.649921 5.676692 0.5428702 -3.4882755 -11.688448 -12.276824 2.5431817 -1.2939427
6.784985 11.668312 -4.1650343 4.4712596 5.9086823 -5.857318 -11.068881 -2.4984426
-5.35929 -5.5165277 1.7619394 -13.176859 10.537306 -5.4893966 1.3711964 13.017786
14.671167 3.64013 8.50591 4.402404 -6.4315605 4.771046 -8.267722 -7.383554
-1.8060638 -1.2760464 0.27402294 0.4701244 -4.243377 5.414737 -3.1737351 -4.0210943
0.19597846 2.3034625 -3.8277364 3.157735 -11.057352 -9.7425585 -13.941227 -14.080607
-14.113869 -14.105183 -18.114906 15.014103 -15.609189 -15.561452 -18.324232 6.2239456
6.1952934 6.230132 20.451797 13.975015 -0.03563863 -0.022794029 -16.024979 1.002823
9.975742 -6.2412443 -6.5821357 -0.7370702 6.946029 -14.298874 -1.8344417 13.735614
6.4959373 3.9600158 8.6999445 12.227632 3.2397275 13.822341 -0.62991357 9.745882
10.416349 0.5971872 -0.94750834 -11.06507 11.950136 0.00053366204 -10.637056 -2.930269
1.656691 -7.6464577 13.583971 4.196581 7.2728243 9.90292 4.13088 10.266802
15.929425 6.735098 13.257224 7.2530327 11.3537445 15.134363 7.1045084 11.955598
6.1034093 2.7575185 2.204371 -0.75046396 3.80579 4.8878174 4.3245187 10.778061
4.3053017 2.19505 6.0755653 4.04342 6.07134 5.336573 4.3811107 -3.2241104
-11.081392 -14.495232 0.724228 -7.222171 -2.844365 -18.75349 -6.100951 3.9182267
7.6931176 4.1525297 4.2912707 7.868019 -7.2036395 -0.47909102 -13.470332 7.1586337
10.213812 20.163687 2.8804343 -2.8783257 12.161802 -7.073236 8.835022 -1.0132555
6.00757 -9.098562 5.1387773 14.482112 22.005913 8.772937 10.756159 11.794158
00000000: d281 05c1 1a99 4dc1 f17c 6241 7062 9340
00000010: 1e86 89c0 278c 65c1 a593 5ac0 6d97 d3c0
00000020: 49cc 0fc1 6be7 44c0 b532 92bf c2b5 fa3f
00000030: e7ed bfc0 ee5c 143f 0279 6abf b77b 0941
00000040: e3fe ca40 5203 0c41 4665 8440 88d1 0741
00000050: d603 5c41 9263 0540 83c9 01c0 1867 a4c0
00000060: 0183 01bf 28a9 23c1 ac81 d7c0 e25c 67c1
00000070: f488 b040 d5b1 4f41 8579 98c1 95fa b440
00000080: c634 a23f 07db 8840 6936 35be 3a42 e9c0
00000090: f480 5ec1 a25b 13c1 a20d ce41 6c82 7bc1
000000a0: 118b ad41 748c dbc0 09e4 50c0 9e28 31c1
000000b0: 4ea9 67c1 e3a0 373f 2c14 98c0 7a80 1540
000000c0: fc8e 8fc0 c8ad a940 fa24 5d41 e49b 17bf
000000d0: 0e39 28c1 ad84 e440 e3a6 1a40 1664 aac1
000000e0: 1f1a e7c0 46fe 02bf 487c 56c1 c6df eb40
000000f0: ae49 1c41 10b3 f4bf 852a 8bc0 9948 5041
00000100: 2fa9 4841 431c 54bf 9c0e 1ac0 cdd8 b2c0
00000110: 9e19 5c41 9235 c440 f22b 08c1 f90e 56c1
00000120: a8e3 d73f 2c1f 87c1 52a7 84c1 d18f 01c1
00000130: cfb0 7fc1 cc1a bbc0 2552 28c1 234c a0c0
00000140: 06dc 5fc1 c60d d8bf 353b e6c0 05a5 bac0
00000150: a6b6 b43f faff fdbf d225 af41 9cbb dac0
00000160: 627b 55c1 d12f 6ac1 167e c33f cc9c 2840
00000170: 913c d141 917b 0fc1 65b5 9ac0 1f98 82bf
00000180: 3baf 25c1 c70d 4c41 ea4a 6a41 24c9 28c1
00000190: eb4f bec1 6db4 90c0 367f 0b41 c4aa ab40
000001a0: 1466 7a41 76a7 b540 8bf9 0a3f e83f 5fc0
000001b0: e203 3bc1 df6d 44c1 7dc3 2240 ea9f a5bf
000001c0: 991e d940 68b1 3a41 f647 85c0 8f14 8f40
000001d0: ed13 bd40 266f bbc0 231a 31c1 7ce6 1fc0
000001e0: 4e7f abc0 6587 b0c0 3b87 e13f 6ad4 52c1
000001f0: ce98 2841 23a9 afc0 5d83 af3f da48 5041
00000200: 1abd 6a41 e4f7 6840 3518 0841 7ee0 8c40
00000210: 58cf cdc0 69ac 9840 9748 04c1 1346 ecc0
00000220: 192d e7bf 7d55 a3bf bc4c 8c3e 25b4 f03e
00000230: bfc9 87c0 8745 ad40 7a1e 4bc0 ceac 80c0
00000240: 94ae 483e ee6b 1340 a2f9 74c0 5518 4a40
00000250: eaea 30c1 85e1 1bc1 440f 5fc1 2b4a 61c1
00000260: 68d2 61c1 d4ae 61c1 54eb 90c1 c439 7041
00000270: 3dbf 79c1 b5fb 78c1 0798 92c1 902a c740
00000280: d83f c640 3e5d c740 489d a341 a999 5f41
00000290: d0f9 11bd 8bba babc 2833 80c1 815c 803f
000002a0: a49c 1f41 46b8 c7c0 dba0 d2c0 a2b0 3cbf
000002b0: df45 de40 30c8 64c1 fcce eabf 13c5 5b41
000002c0: b8de cf40 e670 7d40 f932 0b41 61a4 4341
000002d0: b257 4f40 4f28 5d41 0442 21bf 22ef 1b41
000002e0: 5ea9 2641 43e1 183f e88f 72bf 870a 31c1
000002f0: c233 3f41 74e5 0b3a 6231 2ac1 8789 3bc0
00000300: 730e d43f c8af f4c0 f257 5941 644a 8640
00000310: faba e840 5c72 1e41 2b30 8440 d244 2441
00000320: edde 7e41 ec85 d740 971d 5441 d818 e840
00000330: f0a8 3541 5a26 7241 2258 e340 214a 3f41
00000340: 214f c340 2f7b 3040 6a14 0d40 681e 40bf
00000350: 1092 7340 0069 9c40 7562 8a40 f072 2c41
00000360: 08c5 8940 b37b 0c40 086b c240 b263 8140
00000370: 6b48 c240 35c5 aa40 0f32 8c40 d357 4ec0
00000380: 624d 31c1 78ec 67c1 0267 393f 061c e7c0
00000390: 130a 36c0 2607 96c1 fe3a c3c0 3ac4 7a40
000003a0: 052e f640 86e1 8440 1752 8940 d0c6 fb40
000003b0: 3784 e6c0 6b4b f5be 7b86 57c1 8713 e540
000003c0: c66b 2341 3b4f a141 0959 3840 7d36 38c0
000003d0: be96 4241 f357 e2c0 405c 0d41 5bb2 81bf
000003e0: 033e c040 b693 11c1 dd70 a440 bbb6 6741
000003f0: 1c0c b041 f35d 0c41 3a19 2c41 dfb4 3c41

0.bias f4 [64]
-0.059713934 0.3229777 0.8513655 -0.6768683 0.0900058 0.9883152 0.14263034 0.12717383
0.1337876 -0.3393657 0.5784667 0.32245192 -0.09752602 -0.023301976 0.45704007 -0.0013797627
-0.06255375 0.25924176 0.6359248 -0.17877814 0.5338407 0.014826116 -0.0007804222 2.611406
-0.18153563 -0.4815138 0.022404894 -0.1344073 0.10514153 5.5295405 0.26775736 -0.09890044
-0.25079516 0.18842502 -0.5336961 0.18551527 0.037289307 0.27630606 -0.115756735 -0.017489403
0.35586238 0.36002427 0.0054631867 -0.15390411 0.36832452 0.48293674 0.3262733 0.338679
-0.0638932 1.240394 -0.2208246 0.13604574 0.08818577 -0.27095613 0.103118144 -0.28573433
-0.31934696 -0.52878547 -0.19150838 -0.01726898 0.12601143 0.048013598 0.05438718 0.119579546
00000000: 9996 74bd 555d a53e 17f3 593f 3e47 2dbf
00000010: f654 b83d 3a02 7d3f b00d 123e db39 023e
00000020: 9eff 083e 57c1 adbe 6516 143f 6b18 a53e
00000030: b9bb c7bd c9e3 bebc 2801 ea3e 27d9 b4ba
00000040: 2e1c 80bd 56bb 843e f8cb 223f 9e11 37be
00000050: c9a9 083f 3de9 723c 3f95 4cba 4721 2740
00000060: 7ae4 39be fa88 f6be 788a b73c 11a2 09be
00000070: 7154 d73d fff1 b040 7e17 893e 508c cabd
00000080: 3968 80be 7df2 403e 4fa0 08bf b7f7 3d3e
00000090: acbc 183d fd77 8d3e de11 edbd f045 8fbc
000000a0: 9833 b63e 1a55 b83e 8804 b33b 0a99 1dbe
000000b0: 0895 bc3e 7c43 f73e 4b0d a73e 5567 ad3e
000000c0: 70da 82bd 3bc5 9e3f d81f 62be 934f 0b3e
000000d0: be9a b43d c3ba 8abe 9b2f d33d c54b 92be
000000e0: 7281 a3be 7c5e 07bf c61a 44be ad77 8dbc
000000f0: 2409 013e e8a9 443d 17c5 5e3d 1fe6 f43d

1.weight f4 [64]
9.312921 14.542145 4.7628317 9.409265 13.953921 -0.5911561 -1.003256 0.42417383
-0.9536106 10.250436 -0.7884024 17.040392 -2.0270414 16.219036 -1.6456345 -2.4886432
-0.74171007 0.8168005 -1.5569173 13.856219 -11.484301 -0.027365062 -8.246027 2.8123937
8.592164 -4.7127104 17.926342 -0.1373007 -8.577386 -0.27559346 -2.3796782 -0.80037236
0.8518042 13.50976 12.436233 -0.97449744 -1.7736063 8.725186 -1.9759992 7.9857306
8.395127 -8.409994 0.16353567 13.810857 6.8247256 -1.8091681 13.142947 -1.7308286
7.5880604 8.919559 0.6821763 16.487608 -2.5330555 9.813064 7.095335 10.149701
-18.11471 18.98688 9.780042 -1.9374909 8.663263 0.69092697 10.378838 10.782805
00000000: b901 1541 a0ac 6841 1e69 9840 598c 1641
00000010: 4343 5f41 0256 17bf b16a 80bf 502d d93e
00000020: d31f 74bf c901 2441 bdd4 49bf b952 8841
00000030: 0cbb 01c0 96c0 8141 27a4 d2bf ee45 1fc0
00000040: b6e0 3dbf d619 513f 1149 c7bf 13b3 5d41
00000050: b2bf 37c1 b22c e0bc baef 03c1 42fe 3340
00000060: 8179 0941 86ce 96c0 2669 8f41 8e98 0cbe
00000070: f93c 09c1 961a 8dbe a64c 18c0 34e5 4cbf
00000080: d70f 5a3f fa27 5841 cffa 4641 aa78 79bf
00000090: 8805 e3bf 5d9a 0b41 8bed fcbf 1b8b ff40
000000a0: 7152 0641 568f 06c1 e575 273e 45f9 5c41
000000b0: 2764 da40 d292 e7bf 8349 5241 cb8b ddbf
000000c0: 64d1 f240 83b6 0e41 1ba3 2e3f 9fe6 8341
000000d0: 951d 22c0 4f02 1d41 fc0c e340 2d65 2241
000000e0: edea 90c1 21e5 9741 0d7b 1c41 b4ff f7bf
000000f0: ba9c 0a41 97e0 303f b80f 2641 5f86 2c41

1.bias f4 [64]
-0.13342978 -4.459761 -2.213578 -1.897495 -4.7473283 -2.0871003 -2.0199056 -1.2118791
-3.0023205 -6.8576035 -2.705623 -5.3676257 -3.334843 -8.29751 -3.0562994 -2.605642
-3.9167256 -1.6307776 -2.7781982 -2.7483811 -4.3226256 -2.5744188 -4.293306 -0.6979183
-2.2120833 -5.33698 -6.7063165 -3.8159854 -5.4376493 -1.583488 -2.3590164 -3.0233145
-1.0347059 -3.9214265 -5.612481 -0.4480111 -3.0235941 -1.3432206 -4.799425 0.6740071
-8.561452 -2.4102294 -2.894365 -10.304097 -3.7988336 -2.7479897 -2.046301 -3.5695581
-3.971309 -2.1316185 -3.177031 -2.7012217 -2.0966353 -0.5870243 -1.5577928 -5.282408
-8.952956 -8.660158 -4.6908507 -2.626963 -2.3143063 -2.0635364 -0.78186595 -9.627868
00000000: d1a1 08be 5db6 8ec0 43ab 0dc0 1ee1 f2bf
00000010: 1dea 97c0 0d93 05c0 2246 01c0 db1e 9bbf
00000020: 0526 40c0 7d71 dbc0 ed28 2dc0 97c3 abc0
00000030: 116e 55c0 9ac2 04c1 699a 43c0 d7c2 26c0
00000040: a2ab 7ac0 52bd d0bf 00ce 31c0 7ae5 2fc0
00000050: f352 8ac0 47c3 24c0 c362 89c0 c6aa 32bf
00000060: c692 0dc0 8ac8 aac0 259a d6c0 1b39 74c0
00000070: 3901 aec0 bcaf cabf 20fa 16c0 fc7d 41c0
00000080: 3e71 84bf a7f8 7ac0 7299 b3c0 b661 e5be
00000090: 9182 41c0 a7ee abbf e494 99c0 bb8b 2c3f
000000a0: b5fb 08c1 3341 1ac0 473d 39c0 95dd 24c1
000000b0: 1720 73c0 10df 2fc0 98f6 02c0 a473 64c0
000000c0: ed29 7ec0 706c 08c0 7a54 4bc0 d1e0 2cc0
000000d0: 462f 06c0 3947 16bf c165 c7bf 7d09 a9c0
000000e0: 4f3f 0fc1 0290 0ac1 731b 96c0 2920 28c0
000000f0: 981d 14c0 fb10 04c0 5e28 48bf bf0b 1ac1

1.running_mean f4 [64]
-164.8195 -86.86485 191.48166 -21.561222 -60.561234 0.9883155 0.1426304 0.12717375
0.13378766 70.47497 0.578467 -34.929504 -0.097525984 -94.664566 0.4570402 -0.0013797621
-0.06255372 8.037975 0.6359246 116.386894 150.38672 0.014826121 122.32082 2.611405
-49.927055 -62.734108 -215.08315 -0.13440722 -64.78279 3.1989136 0.26775724 -0.09890047
-8.4944515 -34.51446 -19.27453 0.1855152 0.03728932 -71.35714 -0.115756705 -39.0449
251.42375 87.968376 0.0054631885 -110.81991 -64.61981 0.48293662 25.535534 0.33867913
-109.310555 62.937897 -0.22082467 -23.2024 0.0881858 75.08421 73.21594 -79.63619
33.28994 -114.53204 54.048954 -0.01726899 -168.11069 0.048013583 -43.03576 15.499006
00000000: cbd1 24c3 ceba adc2 4e7b 3f43 627d acc1
00000010: b43e 72c2 3f02 7d3f b40d 123e d639 023e
00000020: a2ff 083e 2ff3 8c42 6a16 143f d0b7 0bc2
00000030: b4bb c7bd 4254 bdc2 2c01 ea3e 22d9 b4ba
00000040: 2a1c 80bd 8c9b 0041 f4cb 223f 17c6 e842
00000050: 0063 1643 42e9 723c 43a4 f442 4221 2740
00000060: 4eb5 47c2 baef 7ac2 4915 57c3 0ca2 09be
00000070: ca90 81c2 00bb 4c40 7a17 893e 548c cabd
00000080: 46e9 07c1 cf0e 0ac2 3d32 9ac1 b2f7 3d3e
00000090: b0bc 183d dbb6 8ec2 da11 edbd fa2d 1cc2
000000a0: 7b6c 7b43 cfef af42 8c04 b33b cba3 ddc2
000000b0: 583d 81c2 7843 f73e c648 cc41 5a67 ad3e
000000c0: 019f dac2 68c0 7b42 dd1f 62be 849e b9c1
000000d0: c29a b43d 1e2b 9642 906e 9242 bb45 9fc2
000000e0: e628 0542 6810 e5c2 2132 5842 b277 8dbc
000000f0: 561c 28c3 e4a9 443d 9e24 2cc2 eefb 7741

1.running_var f4 [64]
28464.545 22886.658 7115.4795 11686.491 12926.834 6e-45 6e-45 6e-45
6e-45 18586.959 6e-45 20739.164 6e-45 52440.59 6e-45 6e-45
6e-45 648.4984 6e-45 16771.229 16722.988 6e-45 22954.271 6e-45
14545.776 7385.865 24707.732 6e-45 12855.135 59.174 6e-45 6e-45
22111.96 24590.896 34399.812 6e-45 6e-45 21389.922 6e-45 10371.03
14387.576 21837.434 6e-45 14064.99 14851.8545 6e-45 21421.588 6e-45
11237.936 19716.514 6e-45 20628.166 6e-45 14487.31 23762.04 21498.621
28792.275 36755.64 16120.123 6e-45 14797.126 6e-45 23622.582 17247.62
00000000: 1761 de46 51cd b246 d65b de45 f799 3646
00000010: 56fb 4946 0400 0000 0400 0000 0400 0000
00000020: 0400 0000 eb35 9146 0400 0000 5406 a246
00000030: 0400 0000 97d8 4c47 0400 0000 0400 0000
00000040: 0400 0000 e61f 2244 0400 0000 7506 8346
00000050: faa5 8246 0400 0000 8b54 b346 0400 0000
00000060: 1b47 6346 ecce e645 7707 c146 0400 0000
00000070: 8adc 4846 2db2 6c42 0400 0000 0400 0000
00000080: ecbf ac46 cb1d c046 d05f 0647 0400 0000
00000090: 0400 0000 d81b a746 0400 0000 1f0c 2246
000000a0: 4ece 6046 de9a aa46 0400 0000 f6c3 5b46
000000b0: 6b0f 6846 0400 0000 2d5b a746 0400 0000
000000c0: be97 2f46 0709 9a46 0400 0000 5528 a146
000000d0: 0400 0000 3d5d 6246 14a4 b946 3ef5 a746
000000e0: 8df0 e046 a493 0f47 7ee0 7b46 0400 0000
000000f0: 8134 6746 0400 0000 2a8d b846 3dbf 8646

4.weight f4 [64, 64]
4.393371 4.63461 4.449677 -6.8447165 4.0272436 -0.37233165 3.4633117 3.1790273
2.320559 -8.056379 1.0781865 -8.586917 2.3453944 -7.3820915 2.2540767 2.624293
-1.0364606 -4.28081 2.3836029 -8.329355 4.546072 1.6692294 -6.683138 3.0066907
3.2997851 4.389121 -8.409763 2.3578227 -5.800652 4.1941676 2.3012812 -3.1823063
-3.438557 -5.200285 4.9058676 2.6682193 -2.3967295 3.3744993 1.8963438 -8.638415
4.40604 4.233437 2.1694295 -7.400748 4.4201527 2.4209547 -8.462754 2.0893383
-6.269646 4.772736 2.1156633 -6.938348 -2.459298 -8.542467 -7.9942837 -6.352716
-6.8644485 -8.484965 -8.490464 1.9392636 3.0406272 3.9999902 -7.7821703 -8.51958
-5.312359 -7.0325084 -4.054522 6.946728 -8.723257 1.1079147 -2.615592 -2.6425474
-2.3239317 6.991066 3.1257534 5.6003256 2.40548 8.607135 2.3934007 -2.3356953
0.24773978 1.7936945 -2.351287 7.8228374 -5.506626 -0.26287597 4.817114 -0.7602276
-7.941978 -4.8968053 7.722112 -1.6902632 8.372383 -2.8260334 -2.3804631 -0.117987186
1.204503 6.739312 -6.6749344 -1.7699325 2.3411157 -8.34503 2.8502762 4.667544
-4.934481 -8.105298 1.1885368 8.017472 -4.8322253 2.4113572 7.306666 2.760528
4.078049 -6.7539005 -2.8588398 4.466213 -1.4118625 4.796861 4.3990817 4.328757
8.280105 7.8621955 4.4452076 2.3641691 -8.706535 -0.2454757 5.1311836 7.9002957
-2.4058676 3.197128 3.394167 3.031113 3.0989792 3.0035224 3.3184261 -3.041107
2.2696478 1.2704512 1.1726029 -1.105821 2.3888655 2.0569916 2.3395033 2.2834446
2.2981842 0.3623179 2.2770586 0.8048444 -3.2724888 3.366044 -2.347814 -3.2260005
-0.6406183 -2.2494824 -4.13446 -2.1195168 1.0696687 0.69717467 -2.4099717 3.284225
3.9519596 1.8882389 -1.0827338 3.0697088 -2.2684999 -1.857862 -2.205664 2.928894
0.6431561 2.336937 -0.28618172 2.1590092 -3.1280653 -2.2114205 2.630155 2.3386927
-3.3666868 0.5415209 -2.923436 -1.9368455 -1.9102929 0.9340841 2.3812304 -1.2411324
-2.3114007 2.7050233 -2.3818963 -2.2822258 -1.58216 2.6531723 2.3003306 2.3603208
-4.475753 -6.2252316 -5.6474543 4.939153 -7.469092 0.8809107 -3.726838 -0.68676597
-2.3739736 8.130642 -0.7275378 6.7279115 2.4249496 8.480647 -2.3762064 2.3913772
1.3320506 -2.2640402 -2.3628023 6.2257285 -4.608048 0.73837936 7.3449078 -2.2094805
-4.6029077 -5.2515335 6.3437085 -2.8390062 8.197857 -4.2298484 2.2347584 1.2046443
2.6672773 7.2522845 -4.534147 -0.8445328 2.4370053 -4.6624384 1.0588204 5.09599
-6.6706805 -6.6005025 3.6041858 8.446007 -5.807734 -2.40255 5.0308294 2.4518836
-0.7538457 -6.4079914 -2.5842516 4.480978 -2.723936 3.9529912 1.10175 6.1155396
8.568458 6.6640444 4.9725804 -2.2381554 -5.279581 -3.2769701 6.650717 8.014514
00000000: 7f96 8c40 ba4e 9440 c163 8e40 eb07 dbc0
00000010: 2edf 8040 41a2 bebe e6a6 5d40 2f75 4b40
00000020: 0a84 1440 eee6 00c1 0402 8a3f 0364 09c1
00000030: f11a 1640 183a ecc0 cb42 1040 6bf4 2740
00000040: beaa 84bf 65fc 88c0 f38c 1840 0a45 05c1
00000050: 6c79 9140 4fa9 d53f 44dc d5c0 9f6d 4040
00000060: ae2f 5340 ae73 8c40 648e 06c1 91e6 1640
00000070: f19e b9c0 9f36 8640 3148 1340 e8aa 4bc0
00000080: 5111 5cc0 bc68 a6c0 defc 9c40 1bc4 2a40
00000090: 0464 19c0 ccf7 5740 65bb f23f f336 0ac1
000000a0: 48fe 8c40 5178 8740 efd7 0a40 edd2 ecc0
000000b0: e471 8d40 ecf0 1a40 7167 07c1 b8b7 0540
000000c0: f1a0 c8c0 41ba 9840 0767 0740 f206 dec0
000000d0: 2365 1dc0 f2ad 08c1 2cd1 ffc0 7349 cbc0
000000e0: 90a9 dbc0 6bc2 07c1 f1d8 07c1 ca39 f83f
000000f0: a399 4240 d7ff 7f40 8a07 f9c0 3350 08c1
00000100: d8fe a9c0 4f0a e1c0 a5be 81c0 994b de40
00000110: 7692 0bc1 26d0 8d3f dc65 27c0 7f1f 29c0
00000120: 4cbb 14c0 d0b6 df40 580c 4840 de35 b340
00000130: 62f3 1940 d3b6 0941 7a2d 1940 087c 15c0
00000140: 7faf 7d3e c897 e53f 7c7b 16c0 af54 fa40
00000150: 4836 b0c0 ae97 86be cc25 9a40 479e 42bf
00000160: af24 fec0 a1b2 9cc0 8b1b f740 8b5a d8bf
00000170: 48f5 0541 bbdd 34c0 8259 18c0 44a3 f1bd
00000180: 282d 9a3f 72a8 d740 1099 d5c0 268d e2bf
00000190: d7d4 1540 3e85 05c1 ed6a 3640 855c 9540
000001a0: 45e7 9dc0 4daf 01c1 f921 983f 9147 0041
000001b0: 97a1 9ac0 ad53 1a40 35d0 e940 7eac 3040
000001c0: 617f 8240 f41f d8c0 3bf7 36c0 38eb 8e40
000001d0: e9b7 b4bf e37f 9940 47c5 8c40 2d85 8a40
000001e0: 4f7b 0441 1b97 fb40 243f 8e40 8c4e 1740
000001f0: f84d 0bc1 fb5d 7bbe a832 a440 39cf fc40
00000200: bcf9 19c0 bf9d 4c40 083a 5940 c1fd 4140
00000210: ad55 4640 b639 4040 1861 5440 7fa1 42c0
00000220: e941 1140 259e a23f da17 963f 8b8b 8dbf
00000230: 2ce3 1840 c0a5 0340 6cba 1540 f523 1240
00000240: 7315 1340 bb81 b93e 54bb 1140 480a 4e3f
00000250: 7570 51c0 446d 5740 9642 16c0 cb76 4ec0
00000260: 90ff 23bf 85f7 0fc0 7f4d 84c0 2aa6 07c0
00000270: e7ea 883f 0a7a 323f fa3c 1ac0 be30 5240
00000280: e8ec 7c40 d0b1 f13f 0597 8abf 1c76 4440
00000290: 1a2f 11c0 6cce edbf 9929 0dc0 0073 3b40
000002a0: e1a5 243f 6090 1540 6986 92be 352d 0a40
000002b0: 3932 48c0 ea87 0dc0 7654 2840 24ad 1540
000002c0: cc77 57c0 1da1 0a3f 9319 3bc0 8eea f7bf
000002d0: 7a84 f4bf 2320 6f3f 1466 1840 6ddd 9ebf
000002e0: fded 13c0 1a1f 2d40 fd70 18c0 fd0f 12c0
000002f0: 3884 cabf 93cd 2940 9e38 1340 7f0f 1740
00000300: 5e39 8fc0 1935 c7c0 f2b7 b4c0 8b0d 9e40
00000310: cd02 efc0 5d83 613f 8484 6ec0 e5cf 2fbf
00000320: 2fef 17c0 1c17 0241 eb3f 3abf 0d4b d740
00000330: 6032 1b40 bbb0 0741 c413 18c0 530c 1940
00000340: a280 aa3f 09e6 10c0 2738 17c0 2b39 c740
00000350: 2175 93c0 6e06 3d3f 7c09 eb40 2168 0dc0
00000360: 054b 93c0 900c a8c0 a9ff ca40 47b2 35c0
00000370: 6c2a 0341 eb5a 87c0 4806 0f40 c931 9a3f
00000380: acb4 2a40 b712 e840 bb17 91c0 4d33 58bf
00000390: e5f7 1b40 b232 95c0 6d87 873f 5a12 a340
000003a0: 3776 d5c0 5137 d3c0 fbaa 6640 d822 0741
000003b0: f5d8 b9c0 61c3 19c0 8efc a040 a9eb 1c40
000003c0: 08fc 40bf 440e cdc0 6164 25c0 2c64 8f40
000003d0: f854 2ec0 cffd 7c40 2506 8d3f 80b2 c340
000003e0: 6718 0941 da3f d540 611f 9f40 f03d 0fc0
000003f0: 54f2 a8c0 e1b9 51c0 acd2 d440 733b 0041

4.bias f4 [64]
0.049953833 -0.25585625 0.26108325 -0.09764542 0.557511 0.04645983 -0.28441033 0.12934034
0.20209202 0.08066212 -0.28150895 -0.008320006 0.040385276 0.020188967 -0.3730038 0.39027074
0.070917405 -0.25251228 0.21561293 0.04542828 -0.26399502 0.007921739 0.7945493 -0.09760994
-0.117674045 0.6968642 -0.0038067189 0.22174183 -0.1030259 -0.35381025 -0.081702136 -0.008342151
0.017554147 -0.50090206 0.16178215 -0.044429243 -0.08061295 0.11567701 0.031710334 -0.028449267
0.010296651 0.03103522 -0.3804317 0.21638224 -0.37192583 0.3459225 -0.45971546 -0.5943596
0.038689904 0.14292915 0.042576764 -0.2341817 -0.35226536 0.17176722 0.010405851 0.21625625
0.1019541 0.37791488 0.35587272 -0.13696525 0.11397582 0.07040368 -0.14847472 -0.82662016
00000000: 649c 4c3d 97ff 82be b4ac 853e 52fa c7bd
00000010: 0ab9 0e3f aa4c 3e3d 3b9e 91be cb71 043e
00000020: 36f1 4e3e 2e32 a53d f121 90be a250 08bc
00000030: 086b 253d 5563 a53c 5bfa bebe 91d1 c73e
00000040: 253d 913d 4a49 81be a3c9 5c3e 0113 3a3d
00000050: 5b2a 87be 2eca 013c 9567 4b3f b8e7 c7bd
00000060: 17ff f0bd b165 323f 257a 79bb 4a10 633e
00000070: 3eff d2bd 9e26 b5be 7353 a7bd 84ad 08bc
00000080: b7cd 8f3c 1e3b 00bf 38aa 253e 70fb 35bd
00000090: 6718 a5bd 11e8 ec3d b2e2 013d 700e e9bc
000000a0: 49b3 283c 933d fe3c f2c7 c2be 4e93 5d3e
000000b0: 106d bebe c11c b13e d35f ebbe f327 18bf
000000c0: 4e79 1e3d 055c 123e f964 2e3d 54cd 6fbe
000000d0: 205c b4be bfe3 2f3e 4d7d 2a3c 4772 5d3e
000000e0: 50cd d03d 0f7e c13e f334 b63e 9e40 0cbe
000000f0: 286c e93d ce2f 903d c209 18be 619d 53bf

5.weight f4 [64]
1.5027934 12.30667 0.52420104 17.293112 9.797675 -11.871299 -0.7638219 -0.961861
2.2150512 0.58143085 -1.3787407 13.959841 -1.4872265 -0.3522464 13.405739 -1.8516483
-0.37123024 -1.4367882 -0.37604168 9.572385 14.288703 1.5513824 14.333179 9.31298
13.26465 1.6898642 -1.2864807 -0.30592334 -0.5458359 0.13012217 -0.3409888 -0.6361059
-1.7393515 2.2009313 -1.5115436 -1.7556181 -1.0583872 11.560611 -1.881525 -1.8137835
10.60778 1.6486641 -1.2868633 -2.0690424 1.5361938 -1.1487222 -0.99076307 12.780469
-0.18879074 17.79505 -0.7351301 0.6441565 -1.9966012 -0.40966684 -1.591744 -0.36871526
-1.8374207 12.830484 -1.7256019 19.61007 10.178173 1.970762 0.5007531 7.1567397
00000000: 895b c03f 1fe8 4441 0a32 063f 4b58 8a41
00000010: 47c3 1c41 d7f0 3dc1 d589 43bf 863c 76bf
00000020: 66c3 0d40 a7d8 143f 937a b0bf 825b 5f41
00000030: 705d bebf a459 b4be e87d 5641 d002 edbf
00000040: e411 bebe ade8 b7bf 8988 c0be 7d28 1941
00000050: 879e 6441 b393 c63f b454 6541 f701 1541
00000060: 023c 5441 784d d83f 66ab a4bf fca1 9cbe
00000070: e7bb 0bbf bf3e 053e 1696 aebe d6d7 22bf
00000080: 12a3 debf 0fdc 0c40 437a c1bf 18b8 e0bf
00000090: 3b79 87bf 43f8 3841 d0d5 f0bf 0f2a e8bf
000000a0: 78b9 2941 6d07 d33f f0b7 a4bf 316b 04c0
000000b0: 00a2 c43f 5409 93bf a6a2 7dbf cd7c 4c41
000000c0: 5c52 41be 435c 8e41 7c31 3cbf 71e7 243f
000000d0: a190 ffbf dabf d1be 44be cbbf 3fc8 bcbe
000000e0: 9a30 ebbf aa49 4d41 86e0 dcbf 6ce1 9c41
000000f0: ccd9 2241 ee41 fc3f 5b31 003f 0304 e540

5.bias f4 [64]
0.84112453 5.446405 -2.095971 5.2104096 -2.9098208 -3.2725449 -3.5377703 -3.7663667
0.017297737 -2.6294923 -2.709771 5.470257 -2.9452634 -1.6206393 5.3206754 -2.6274786
-0.8311382 -2.6942444 -1.7358438 -3.4030662 5.9078083 0.38103697 5.868277 -3.3722713
5.58297 0.7651767 -3.8786168 -2.2826698 -1.3927076 -1.1744916 -1.1186724 -2.249157
-2.938764 -0.14384146 -2.4467263 -2.497071 -2.700802 5.454581 -2.872989 -2.25817
-4.638697 0.4232556 -2.9732807 0.30257303 0.7022945 -2.781478 -3.166839 4.746988
-0.8509445 4.849737 -2.4248307 -2.0407836 -2.74509 -1.6779364 -3.6301274 -1.3021866
-3.3288002 5.160418 -2.8113751 4.626527 -4.284058 0.22550969 -1.5384175 -2.268831
00000000: f053 573f f348 ae40 6424 06c0 adbb a640
00000010: 813a 3ac0 6071 51c0 d46a 62c0 270c 71c0
00000020: fcb3 8d3c 9a49 28c0 e36c 2dc0 580c af40
00000030: 327f 3cc0 1c71 cfbf f942 aa40 9c28 28c0
00000040: 79c5 54bf 806e 2cc0 2130 debf d6cb 59c0
00000050: c40c bd40 4717 c33e edc8 bb40 4bd3 57c0
00000060: b1a7 b240 9fe2 433f 423b 78c0 4317 12c0
00000070: 3e44 b2bf be55 96bf a830 8fbf 30f2 0fc0
00000080: b614 3cc0 2d4b 13be 2a97 1cc0 03d0 1fc0
00000090: f1d9 2cc0 ed8b ae40 0ddf 37c0 db85 10c0
000000a0: 3570 94c0 f5b4 d83e 3b4a 3ec0 daea 9a3e
000000b0: 93c9 333f bc03 32c0 7dad 4ac0 53e7 9740
000000c0: 80d7 59bf 0c31 9b40 6d30 1bc0 339c 02c0
000000d0: 8eaf 2fc0 9fc6 d6bf 0254 68c0 0dae a6bf
000000e0: 100b 55c0 2522 a540 92ed 33c0 820c 9440
000000f0: 0117 89c0 03ec 663e ddea c4bf 8734 11c0

5.running_mean f4 [64]
-464.374 253.77196 0.26108313 254.70456 -83.42261 98.562225 29.101925 0.12934026
-534.0568 8.485483 -0.28150883 254.15045 0.04038526 -52.086544 229.6192 57.143505
0.03220919 -0.25251216 0.21561301 -235.29164 224.34343 -525.48303 240.3208 -252.66705
229.07547 -386.80576 -0.00380672 0.22174177 16.038141 -0.35381037 -0.0817021 -0.008342147
0.017554138 -507.79227 0.16178209 -0.044429258 -0.08061291 295.8873 0.03171035 -0.02844926
-348.24954 -478.1079 -0.38043183 481.06674 -430.28952 0.34592238 5.935726 283.45874
35.156452 292.52057 0.04257675 -45.81024 -0.35226524 0.1717673 0.010405846 0.21625632
0.10195407 321.35962 0.35587257 221.23434 -331.45294 -471.70795 -0.14847478 -310.56503
00000000: df2f e8c3 9fc5 7d43 b0ac 853e 5eb4 7e43
00000010: 60d8 a6c2 dc1f c542 bed0 e841 c671 043e
00000020: a383 05c4 8ac4 0741 ed21 90be 8426 7e43
00000030: 046b 253d 9f58 50c2 849e 6543 f392 6442
00000040: c9ed 033d 4649 81be a8c9 5c3e a94a 6bc3
00000050: eb57 6043 ea5e 03c4 2052 7043 c4aa 7cc3
00000060: 5213 6543 2367 c1c3 2a7a 79bb 4610 633e
00000070: 1d4e 8041 a226 b5be 6e53 a7bd 80ad 08bc
00000080: b2cd 8f3c 69e5 fdc3 34aa 253e 74fb 35bd
00000090: 6218 a5bd 93f1 9343 b6e2 013d 6c0e e9bc
000000a0: f11f aec3 d00d efc3 f6c7 c2be 8b88 f043
000000b0: 0f25 d7c3 bd1c b13e 78f1 bd40 b8ba 8d43
000000c0: 35a0 0c42 a242 9243 f564 2e3d b03d 37c2
000000d0: 1c5c b4be c4e3 2f3e 487d 2a3c 4c72 5d3e
000000e0: 4ccd d03d 08ae a043 ee34 b63e fe3b 5d43
000000f0: fab9 a5c3 9eda ebc3 c609 18be 5348 9bc3

5.running_var f4 [64]
446763.38 693657.0 6e-45 649734.7 350834.22 317257.44 10204.953 6e-45
343845.6 15317.561 6e-45 684717.2 6e-45 21588.252 617737.75 8529.642
5.7525406 6e-45 6e-45 560734.8 659329.75 354626.34 686473.4 519020.25
650348.4 348682.78 6e-45 6e-45 2283.1638 6e-45 6e-45 6e-45
6e-45 297423.53 6e-45 6e-45 6e-45 750466.44 6e-45 6e-45
645664.06 420797.6 6e-45 331133.16 508844.6 6e-45 999.2417 748393.6
5192.4995 681709.5 6e-45 10227.78 6e-45 6e-45 6e-45 6e-45
6e-45 716407.75 6e-45 504788.78 611725.25 434057.12 6e-45 632886.2
00000000: 6c25 da48 9059 2949 0400 0000 6ba0 1e49
00000010: 474e ab48 2ee9 9a48 d073 1f46 0400 0000
00000020: b3e4 a748 3e56 6f46 0400 0000 d32a 2749
00000030: 0400 0000 81a8 a846 9cd0 1649 9146 0546
00000040: d014 b840 0400 0000 0400 0000 ede5 0849
00000050: 1cf8 2049 4b28 ad48 9698 2749 886d fd48
00000060: c6c6 1e49 5941 aa48 0400 0000 0400 0000
00000070: 9fb2 0e45 0400 0000 0400 0000 0400 0000
00000080: 0400 0000 f139 9148 0400 0000 0400 0000
00000090: 0400 0000 2738 3749 0400 0000 0400 0000
000000a0: 01a2 1d49 b377 cd48 0400 0000 a5af a148
000000b0: 9375 f848 0400 0000 78cf 7944 9ab6 3649
000000c0: ff43 a245 d86e 2649 0400 0000 1fcf 1f46
000000d0: 0400 0000 0400 0000 0400 0000 0400 0000
000000e0: 0400 0000 7ce7 2e49 0400 0000 997a f648
000000f0: d458 1549 24f1 d348 0400 0000 6383 1a49

8.weight f4 [64, 64]
-2.7450526 2.6832888 2.2778873 -1.4059337 3.3128486 0.07309138 2.3895142 -0.81535286
-0.34911734 1.5846518 2.8971002 3.4521854 2.4037077 2.8852925 0.46288732 2.9908807
-1.5650672 2.5052981 3.25215 -3.3157094 -3.338162 1.4656279 3.428316 -2.0229087
-1.7850101 -2.3888128 -1.2265654 -3.3168952 1.8243155 1.6976587 -3.0557578 2.513139
-2.2131763 1.7564373 3.3299634 2.4566765 2.3345451 1.5347128 2.6022403 -0.058744296
-1.0055299 2.2854154 2.3638003 -2.3590117 -2.6399024 -2.3962831 0.591445 0.72079253
-2.2321217 -1.8352414 -2.9853387 -1.5541537 2.4739041 2.756084 -3.190532 3.1251314
2.3270917 -1.774346 -1.7726963 3.601632 2.4108472 2.2102253 2.403346 -1.018555
0.40387934 -0.14950368 2.4269943 2.643635 3.3783948 -2.2035606 -2.2252498 0.18163143
2.5946045 2.6045823 -2.3352687 -2.387755 -0.94803816 -2.2985232 -0.40275708 2.621308
-3.6197355 -2.3002007 3.2093897 -1.8799791 3.2722228 -1.7968122 3.057659 2.8438802
-2.6291375 -2.4606714 -3.0476472 -3.1262631 1.2545099 -2.6984947 0.77161735 2.519456
-2.5938852 1.8983405 -3.173637 2.262332 -2.1651592 -0.5131553 -1.9580572 -2.276123
-2.931545 -1.0870998 2.0148523 2.4571705 -1.20739 -2.3349013 -3.1059813 2.6488538
-2.3001933 -2.6171136 -3.016958 -0.07654727 1.5560833 2.4983845 -3.3747687 2.1392927
2.0468779 -2.252189 -2.3259478 -3.0449495 -0.89082855 0.15579684 -0.6604994 2.191595
-0.0121408105 0.0633786 -0.10815287 -0.05736436 0.035098895 -0.045797482 -0.117836 -0.034591496
0.08424874 0.11096726 0.044187322 -0.0010440797 -0.06575243 -0.069460005 0.035452783 -0.08405101
0.05946228 0.088085085 0.082813755 -0.019802257 0.052842945 0.081690595 0.093902364 0.114959955
-0.08522414 0.004417971 0.06393643 -0.091341615 -0.08246796 -0.0040657073 0.042943954 0.050965533
-0.110308334 0.057571575 0.01835075 0.11137508 -0.027386501 -0.096373886 0.0045987964 0.00043199956
-0.08235006 0.110112146 0.07399243 0.025106922 0.004050389 0.07454331 -0.051305756 -0.068181485
-0.09232247 0.04546447 0.109610096 -0.06619424 0.0886513 0.07201274 -0.07977809 0.0670826
-0.118819 0.06163436 0.05716282 -0.065606385 0.07107058 0.012095794 -0.035662383 0.09114894
2.8195465 -2.1446567 2.3107557 -0.41169184 -2.639646 -3.6039524 -2.5212944 -3.273098
0.124243 0.99525523 -2.2668831 3.6240923 -2.3141143 -3.0713449 2.2360399 1.873328
-3.1555846 2.3570886 -3.3467908 -3.2516026 -2.958181 0.23209235 -2.8167353 -1.7294708
1.0373574 -2.1266716 -1.5948997 1.342654 -0.67100024 3.31569 -3.0967197 2.3637853
-2.3464177 0.84760344 3.1060252 2.3095453 -2.4219651 1.9322612 -2.4008982 -3.121372
-3.2324886 -0.21478978 -2.7640705 -2.3319507 -2.4314833 -2.31761 -0.98134303 3.0360382
-1.4810228 3.4298017 -2.8141544 0.17443009 1.8854685 3.2296977 -2.9584734 -3.5555
1.972768 -1.6778811 -1.1321958 2.6241856 -0.86768395 -0.39940482 -4.148694 2.8143568
00000000: f1ae 2fc0 01bb 2b40 e8c8 1140 a3f5 b3bf
00000010: b605 5440 efb0 953d cded 1840 f7ba 50bf
00000020: 82bf b2be dfd5 ca3f 176a 3940 9bf0 5c40
00000030: 59d6 1940 a2a8 3840 91ff ec3e 976a 3f40
00000040: 1f54 c8bf ce56 2040 3a23 5040 9534 54c0
00000050: 72a4 55c0 b299 bb3f 8869 5b40 5677 01c0
00000060: 367b e4bf 4fe2 18c0 1800 9dbf 0348 54c0
00000070: 2c83 e93f e14c d93f 8991 43c0 45d7 2040
00000080: aea4 0dc0 f0d2 e03f 1f1e 5540 303a 1d40
00000090: 3069 1540 7871 c43f 1b8b 2640 dc9d 70bd
000000a0: 34b5 80bf 3f44 1240 8148 1740 0cfa 16c0
000000b0: 29f4 28c0 b45c 19c0 f168 173f dc85 383f
000000c0: 15db 0ec0 31e9 eabf ca0f 3fc0 82ee c6bf
000000d0: 7254 1e40 ae63 3040 ad31 4cc0 2702 4840
000000e0: 12ef 1440 c51d e3bf b6e7 e2bf 2481 6640
000000f0: 524b 1a40 5574 0d40 6cd0 1940 0360 82bf
00000100: 46c9 ce3e 7e17 19be e053 1b40 5131 2940
00000110: 9f37 5840 2307 0dc0 7e6a 0ec0 97fd 393e
00000120: 000e 2640 7ab1 2640 0b75 15c0 fad0 18c0
00000130: a1b2 72bf 011b 13c0 2d36 cebe 83c3 2740
00000140: bfa9 67c0 7d36 13c0 a466 4d40 28a3 f0bf
00000150: 196c 5140 f1fd e5bf afb0 4340 2202 3640
00000160: ca43 28c0 a47b 1dc0 a70c 43c0 b214 48c0
00000170: c893 a03f 23b4 2cc0 b788 453f c43e 2140
00000180: 3702 26c0 d2fc f23f de1c 4bc0 0cca 1040
00000190: f891 0ac0 255e 03bf 9ea1 fabf 00ac 11c0
000001a0: 6f9e 3bc0 1626 8bbf 57f3 0040 4842 1d40
000001b0: c18b 9abf 066f 15c0 66c8 46c0 d286 2940
000001c0: 5e36 13c0 ca7e 27c0 d715 41c0 d1c4 9cbd
000001d0: bd2d c73f 88e5 1f40 36fc 57c0 2cea 0840
000001e0: 0c00 0340 dd23 10c0 54dc 14c0 74e0 42c0
000001f0: 570d 64bf 3589 1f3e 7d16 29bf 1843 0c40
00000200: 40ea 46bc a4cc 813d 407f ddbd e4f6 6abd
00000210: dcc3 0f3d 2496 3bbd 0054 f1bd d0af 0dbd
00000220: 9a8a ac3d ce42 e33d c4fd 343d 80d9 88ba
00000230: 36a9 86bd 0c41 8ebd f036 113d f022 acbd
00000240: b88e 733d f465 b43d 429a a93d 5838 a2bc
00000250: d871 583d 664d a73d e24f c03d 2070 eb3d
00000260: fe89 aebd a0c4 903b 1af1 823d 5011 bbbd
00000270: f6e4 a8bd a039 85bb 00e6 2f3d 3cc1 503d
00000280: 56e9 e1bd 2cd0 6b3d 5054 963c 9e18 e43d
00000290: a859 e0bc ac5f c5bd 80b1 963b 007e e239
000002a0: 26a7 a8bd 7a82 e13d 5889 973d 08ad cd3c
000002b0: 20b9 843b 2aaa 983d fc25 52bd bca2 8bbd
000002c0: 9013 bdbd f438 3a3d 427b e03d d890 87bd
000002d0: d08e b53d 6a7b 933d b262 a3bd 9a62 893d
000002e0: 6057 f3bd 5074 7c3d 9023 6a3d a45c 86bd
000002f0: 748d 913d 702d 463c b812 12bd 4cac ba3d
00000300: 7373 3440 0e42 09c0 6ce3 1340 46c9 d2be
00000310: f6ef 28c0 28a7 66c0 e35c 21c0 707a 51c0
00000320: 1d73 fe3d 0cc9 7e3f 9d14 11c0 21f1 6740
00000330: 731a 14c0 ea90 44c0 471b 0f40 36c9 ef3f
00000340: 19f5 49c0 8ada 1640 d231 56c0 421a 50c0
00000350: d652 3dc0 9ea9 6d3e 6445 34c0 4d5f ddbf
00000360: 21c8 843f 631b 08c0 ac25 ccbf 16dc ab3f
00000370: acc6 2bbf 4434 5440 a830 46c0 4248 1740
00000380: b52b 16c0 8afc 583f 1ec9 4640 97cf 1340
00000390: 7a01 1bc0 5654 f73f 51a8 19c0 8fc4 47c0
000003a0: 18e1 4ec0 daf1 5bbe 88e6 30c0 ae3e 15c0
000003b0: 6c9d 1bc0 b953 14c0 4c39 7bbf 734e 4240
000003c0: 2892 bdbf df81 5b40 1b1b 34c0 cd9d 323e
000003d0: 0857 f13f 5eb3 4e40 a157 3dc0 508d 63c0
000003e0: a983 fc3f cfc4 d6bf cbeb 90bf a8f2 2740
000003f0: 8920 5ebf ca7e ccbe 1ac2 84c0 6c1e 3440

8.bias f4 [64]
-0.112039626 0.34753078 0.017062336 -0.38188645 0.12325618 -0.03338848 -0.24213856 0.41323453
0.07657872 -0.024361134 0.09493202 0.20718232 0.18096037 0.21994694 -0.027304396 0.29269993
0.11224617 -0.0131905675 -0.6364239 -0.03924258 0.044803828 0.04705675 -0.042453364 -0.18042292
-0.16273345 0.11023004 0.35302117 0.10846625 -0.022329584 0.46684077 -0.07060902 -0.09980288
0.061292917 7.370114e-05 -0.7088068 0.2945521 -0.092736095 -0.36390844 -0.017989978 -0.079488486
0.50535023 0.008145288 0.7875266 0.0050629973 -0.41624492 0.11592682 0.082079455 -0.2181191
-0.06278515 0.014533183 -0.10079481 0.040674925 0.1540473 0.45227298 -0.20907545 0.056464985
0.09576843 -0.057652757 0.108008176 0.011245906 -0.026926413 0.10189672 0.25847107 0.53304136
00000000: 0875 e5bd 8eef b13e 50c6 8b3c 9f86 c3be
00000010: bc6d fc3d 5cc2 08bd 2cf3 77be 7a93 d33e
00000020: 4ed5 9c3d 0091 c7bc b86b c23d 9a27 543e
00000030: ad4d 393e c539 613e 78ad dfbc c4dc 953e
00000040: 52e1 e53d 401d 58bc adec 22bf d4bc 20bd
00000050: 3884 373d 94be 403d 94e3 2dbd c9c0 38be
00000060: 99a3 26be 4ac0 e13d 31bf b43e 8e23 de3d
00000070: 88ec b6bc c105 ef3e 769b 90bd 7465 ccbd
00000080: 480e 7b3d 0090 9a38 5d74 35bf 88cf 963e
00000090: 6cec bdbd 3552 babe b85f 93bc dcca a2bd
000000a0: a25e 013f d073 053c 589b 493f 80e7 a53b
000000b0: 0e1e d5be 0a6b ed3d 4619 a83d 9d5a 5fbe
000000c0: 8095 80bd 961c 6e3c 826d cebd c09a 263d
000000d0: 93be 1d3e 5390 e73e e017 56be d447 673d
000000e0: 3d22 c43d 4c25 6cbd 6433 dd3d c040 383c
000000f0: c894 dcbc 3aaf d03d 5256 843e 6675 083f

9.weight f4 [64]
-0.47966912 -0.9804442 1.0 0.0025106424 1.0 1.0 -0.21806291 -0.4368718
1.0 1.0 1.0 -0.5845916 1.7782563 -0.12679292 1.0 0.3231075
1.7526308 1.0 1.7689505 1.0 1.0 1.0 1.8234323 0.37941074
0.0820073 1.0 -0.09971275 1.0 1.0 -0.55284464 0.95240533 1.0
1.0 1.0 -0.551501 -0.55145824 1.0 -0.7699587 1.0 1.0
-0.53740275 1.0 0.17944176 1.0 -1.8463342 1.0 1.0 -0.85972244
1.0 0.4249513 1.0 1.0 0.6527394 -0.37876114 -0.4598929 1.0
0.8498506 1.0 1.0 1.0 1.0 1.0 0.24051674 1.8094598
00000000: 3197 f5be 64fe 7abf 0000 803f 9789 243b
00000010: 0000 803f 0000 803f e24b 5fbe a9ad dfbe
00000020: 0000 803f 0000 803f 0000 803f cca7 15bf
00000030: e79d e33f 01d6 01be 0000 803f 596e a53e
00000040: 3556 e03f 0000 803f f86c e23f 0000 803f
00000050: 0000 803f 0000 803f 3b66 e93f 2042 c23e
00000060: 71f3 a73d 0000 803f 3336 ccbd 0000 803f
00000070: 0000 803f 3a87 0dbf d6d0 733f 0000 803f
00000080: 0000 803f 0000 803f 2b2f 0dbf 5e2c 0dbf
00000090: 0000 803f 031c 45bf 0000 803f 0000 803f
000000a0: 3a93 09bf 0000 803f 95bf 373e 0000 803f
000000b0: ae54 ecbf 0000 803f 0000 803f c516 5cbf
000000c0: 0000 803f 3793 d93e 0000 803f 0000 803f
000000d0: ee19 273f fbec c1be 1577 ebbe 0000 803f
000000e0: cf8f 593f 0000 803f 0000 803f 0000 803f
000000f0: 0000 803f 0000 803f 054a 763e 619c e73f

9.bias f4 [64]
-3.36873 -3.5953014 0.0 -3.9363103 0.0 0.0 -3.8431902 -3.50712
0.0 0.0 0.0 -1.4454538 1.5067545 -4.004356 0.0 -3.9964218
1.4893354 0.0 1.4461002 0.0 0.0 0.0 1.4952635 -3.9306607
-3.4987419 0.0 -3.5751154 0.0 0.0 -1.4730309 -4.4384694 0.0
0.0 0.0 -1.4580643 -1.5361006 0.0 -4.02458 0.0 0.0
-1.4574406 0.0 -4.070532 0.0 1.5281872 0.0 0.0 -1.8503175
0.0 -4.057309 0.0 0.0 -4.174158 -3.7952607 -1.4238095 0.0
-4.3821907 0.0 0.0 0.0 0.0 0.0 -3.2167284 1.4955001
00000000: 4699 57c0 6b19 66c0 0000 0000 82ec 7bc0
00000010: 0000 0000 0000 0000 d4f6 75c0 a774 60c0
00000020: 0000 0000 0000 0000 0000 0000 a104 b9bf
00000030: 55dd c03f af23 80c0 0000 0000 60c5 7fc0
00000040: 8ba2 be3f 0000 0000 d019 b93f 0000 0000
00000050: 0000 0000 0000 0000 cb64 bf3f f28f 7bc0
00000060: 63eb 5fc0 0000 0000 b1ce 64c0 0000 0000
00000070: 0000 0000 478c bcbf f107 8ec0 0000 0000
00000080: 0000 0000 0000 0000 daa1 babf f29e c4bf
00000090: 0000 0000 5cc9 80c0 0000 0000 0000 0000
000000a0: 6a8d babf 0000 0000 cc41 82c0 0000 0000
000000b0: a39b c33f 0000 0000 0000 0000 34d7 ecbf
000000c0: 0000 0000 7ad5 81c0 0000 0000 0000 0000
000000d0: b492 85c0 8de5 72c0 643f b6bf 0000 0000
000000e0: e83a 8cc0 0000 0000 0000 0000 0000 0000
000000f0: 0000 0000 0000 0000 e1de 4dc0 8c6c bf3f

9.running_mean f4 [64]
-0.112039596 0.34753093 0.017062329 -0.38188633 0.12325615 -0.033388466 -0.2421385 0.41323465
0.07657869 -0.024361126 0.09493199 0.20718226 540.8777 0.21994686 -0.027304389 0.2926998
536.02484 -0.013190571 542.07324 -0.039242566 0.044803813 0.047056764 538.1586 -0.18042299
-0.16273338 0.110230014 0.35302132 0.10846622 -0.022329591 0.46684092 57.469715 -0.09980285
0.0612929 7.3701114e-05 -0.7088071 0.29455224 -0.092736065 -1.6115444 -0.01798997 -0.079488456
0.5053505 0.008145284 -56.47349 0.0050629955 -535.64685 0.11592679 0.082079425 -0.21811903
-0.06278512 -24.323822 -0.10079478 0.04067491 0.15404722 -56.808804 -0.20907539 0.05646497
57.356846 -0.05765274 0.10800815 0.01124591 -0.026926406 0.10189669 0.2584712 528.4122
00000000: 0475 e5bd 93ef b13e 4cc6 8b3c 9b86 c3be
00000010: b86d fc3d 58c2 08bd 28f3 77be 7e93 d33e
00000020: 4ad5 9c3d fc90 c7bc b46b c23d 9627 543e
00000030: 2c38 0744 c039 613e 74ad dfbc c0dc 953e
00000040: 9701 0644 441d 58bc b084 0744 d0bc 20bd
00000050: 3484 373d 98be 403d 278a 0644 cec0 38be
00000060: 94a3 26be 46c0 e13d 36bf b43e 8a23 de3d
00000070: 8cec b6bc c605 ef3e fde0 6542 7065 ccbd
00000080: 440e 7b3d fc8f 9a38 6274 35bf 8dcf 963e
00000090: 68ec bdbd 1647 cebf b45f 93bc d8ca a2bd
000000a0: a65e 013f cc73 053c dbe4 61c2 7ce7 a53b
000000b0: 66e9 05c4 066b ed3d 4219 a83d 985a 5fbe
000000c0: 7c95 80bd 3097 c2c1 7e6d cebd bc9a 263d
000000d0: 8ebe 1d3e 373c 63c2 dc17 56be d047 673d
000000e0: 696d 6542 4825 6cbd 6033 dd3d c440 383c
000000f0: c494 dcbc 36af d03d 5656 843e 611a 0444

9.running_var f4 [64]
6e-45 6e-45 6e-45 6e-45 6e-45 6e-45 6e-45 6e-45
6e-45 6e-45 6e-45 6e-45 753661.5 6e-45 6e-45 6e-45
766741.8 6e-45 751556.94 6e-45 6e-45 6e-45 761692.9 6e-45
6e-45 6e-45 6e-45 6e-45 6e-45 6e-45 8768.112 6e-45
6e-45 6e-45 6e-45 6e-45 6e-45 205.37134 6e-45 6e-45
6e-45 6e-45 8743.775 6e-45 769108.1 6e-45 6e-45 6e-45
6e-45 4421.976 6e-45 6e-45 6e-45 8743.786 6e-45 6e-45
8743.786 6e-45 6e-45 6e-45 6e-45 6e-45 6e-45 785899.44
00000000: 0400 0000 0400 0000 0400 0000 0400 0000
00000010: 0400 0000 0400 0000 0400 0000 0400 0000
00000020: 0400 0000 0400 0000 0400 0000 0400 0000
00000030: d8ff 3749 0400 0000 0400 0000 0400 0000
00000040: 5d31 3b49 0400 0000 4f7c 3749 0400 0000
00000050: 0400 0000 0400 0000 cef5 3949 0400 0000
00000060: 0400 0000 0400 0000 0400 0000 0400 0000
00000070: 0400 0000 0400 0000 7300 0946 0400 0000
00000080: 0400 0000 0400 0000 0400 0000 0400 0000
00000090: 0400 0000 105f 4d43 0400 0000 0400 0000
000000a0: 0400 0000 0400 0000 1a9f 0846 0400 0000
000000b0: 42c5 3b49 0400 0000 0400 0000 0400 0000
000000c0: 0400 0000 cf2f 8a45 0400 0000 0400 0000
000000d0: 0400 0000 259f 0846 0400 0000 0400 0000
000000e0: 259f 0846 0400 0000 0400 0000 0400 0000
000000f0: 0400 0000 0400 0000 0400 0000 b7de 3f49

12.weight f4 [1, 64]
-0.01783324 0.14964841 0.58949405 -0.09373665 0.10162986 -0.021823881 0.5141539 0.38221082
0.21975985 -0.08721111 -0.2152571 0.28486136 0.6524316 0.58436084 0.3062432 -0.44621417
0.61040956 -0.020577641 0.5113834 -0.5445569 0.21191856 0.015219501 0.5421227 -0.39871526
0.5657957 -0.15308714 0.48502642 -0.5576611 -0.08536229 0.43785822 -0.57406384 -0.12587492
0.12973967 0.16759527 0.2433026 -0.20803644 -0.08292918 -0.5752791 -0.30997974 -0.11364797
-0.10359534 0.19013265 -0.028524317 0.3947975 0.5137663 -0.53216356 0.10575352 -0.35852352
0.35686284 0.5179034 -0.3201656 -0.26197845 0.34264922 0.18722242 0.08896014 -0.39572084
0.17365217 -0.30665448 0.3932703 0.513572 -0.58571434 0.2094788 0.00039244973 0.77421844
00000000: 0417 92bc 6f3d 193e 15e9 163f 00f9 bfbd
00000010: 5123 d03d ffc7 b2bc 979f 033f 23b1 c33e
00000020: ba08 613e bd9b b2bd 5b6c 5cbe 59d9 913e
00000030: c205 273f ac98 153f e9cb 9c3e 2f76 e4be
00000040: cd43 1c3f 7192 a8bc 06ea 023f 1568 0bbf
00000050: 2e01 593e 375b 793c 8ec8 0a3f 6824 ccbe
00000060: fdd7 103f e0c2 1cbe 6255 f83e e1c2 0ebf
00000070: 6dd2 aebd f42e e03e d9f5 12bf 5be5 00be
00000080: 7ada 043e 189e 2b3e 5124 793e 8107 55be
00000090: c6d6 a9bd 7e45 13bf aab5 9ebe 44c0 e8bd
000000a0: cb29 d4bd 22b2 423e d4ab e9bc e622 ca3e
000000b0: 3086 033f df3b 08bf 4d95 d83d 6590 b7be
000000c0: bab6 b63e 5195 043f bfec a3be 0a22 86be
000000d0: b86f af3e 3cb7 3f3e bc30 b63d ec9b cabe
000000e0: e0d1 313e d101 9dbe ba5a c93e 7479 033f
000000f0: 60f1 15bf 9c81 563e b6c1 cd39 2e33 463f

exp_avg f4 [64, 593]
-6.577164e-08 -3.0761436e-07 -1.6825409e-07 -3.2419376e-07 -1.5437975e-07 -4.8606057e-07 -2.2017018e-07 -6.4573436e-07
-2.437911e-08 4.406153e-07 -4.22727e-07 3.1747925e-07 7.1720586e-07 6.337437e-07 2.1585275e-07 4.841533e-07
3.5046945e-08 3.9767448e-07 3.592726e-07 -7.4098455e-07 -1.5210051e-07 -6.4586624e-07 -2.6172205e-07 1.1654525e-06
8.90016e-07 3.9462248e-07 -1.92704e-08 1.3851827e-06 1.1222102e-06 1.0066742e-06 -1.3365023e-07 -3.4133495e-07
-4.5196734e-07 1.192299e-06 -2.5082085e-07 1.44839944e-08 -3.7894105e-07 -3.187931e-07 3.389393e-10 1.4003096e-07
-2.0904835e-08 -4.2184192e-07 -1.783212e-10 -1.5048972e-09 -1.1886732e-09 7.9861573e-10 -6.9528805e-09 -8.04742e-08
-3.8295408e-08 -1.1140892e-07 -9.864864e-08 5.639527e-08 -1.788486e-07 6.5482567e-07 -5.387773e-07 -6.594631e-07
-3.9462504e-12 -3.4617204e-10 7.163256e-10 -1.7826012e-09 -6.549798e-08 -3.6419753e-08 2.9599427e-08 -1.4638967e-07
1.3246172e-07 8.472437e-09 3.9233033e-08 -8.132512e-08 5.0354294e-07 -1.48726915e-08 -1.3517453e-09 9.0146376e-11
-3.4395942e-09 -2.8428714e-11 -1.933593e-09 -3.4758976e-09 -1.7934516e-08 -2.7398684e-08 -4.9046648e-08 -1.5477086e-07
-2.5636066e-07 -7.075144e-08 1.958313e-07 8.704996e-07 -9.890538e-07 -8.792161e-07 -1.0745975e-06 -5.035044e-07
-6.642322e-07 -2.3360672e-06 1.2757841e-06 2.0488567e-06 -2.3017933e-06 -9.217679e-08 3.052781e-10 -8.477148e-10
-2.5912977e-10 -5.2712547e-08 1.5978381e-08 4.7977737e-09 -1.9360458e-08 -2.7237597e-08 -8.294852e-08 1.642703e-07
6.5191415e-08 2.095521e-08 1.60612e-07 2.8064736e-07 3.5857187e-07 2.8579976e-07 3.6853734e-07 1.407551e-07
6.16091e-07 -2.981229e-07 -4.5562953e-08 -1.3216818e-07 2.078739e-07 2.5142524e-09 4.2778936e-08 9.263171e-07
5.051024e-07 1.4525391e-06 -9.2069627e-07 -1.3647167e-06 -1.2574552e-06 1.0872541e-06 1.2941659e-06 1.8743915e-06
-3.576456e-07 2.9480438e-07 2.3473942e-06 -6.416372e-07 9.219788e-07 8.551871e-07 2.029809e-06 -7.464757e-07
3.8645686e-07 -8.240827e-07 1.382355e-06 2.0944371e-06 1.3763282e-06 3.8268945e-07 1.6485296e-06 -4.748093e-07
1.2969721e-06 5.3163257e-07 7.0743295e-07 -6.111211e-07 1.0135836e-06 9.49642e-07 9.565351e-07 9.662829e-07
9.662829e-07 9.662829e-07 9.754345e-07 -9.944123e-08 3.5929645e-07 3.5929645e-07 6.578345e-07 6.6758156e-07
6.6758156e-07 6.6758156e-07 -8.85639e-09 9.7468105e-09 0.0 0.0 5.7742784e-07 7.184472e-07
-2.7878204e-07 -5.558567e-07 -1.2851308e-06 1.5000136e-07 1.9911038e-06 2.6276064e-08 -1.7483063e-07 -3.5121386e-07
4.2956924e-07 -4.0760835e-09 5.1236475e-07 5.4788325e-07 1.6314603e-06 -3.0897007e-07 -2.9098424e-06 2.3191004e-07
8.4458895e-07 -3.6286096e-07 -6.458825e-07 6.1015425e-07 -1.8797467e-06 -7.331166e-08 3.726004e-07 1.1048585e-06
1.1504552e-06 2.7409857e-07 1.0227316e-06 6.284763e-07 2.4560352e-06 -6.389276e-08 -8.3558405e-09 1.880312e-09
6.4930683e-09 4.7293764e-08 7.114042e-08 3.7804735e-08 -1.2215683e-07 -1.7134302e-07 4.3595136e-07 4.1774723e-07
7.4816484e-07 1.8384878e-08 2.8232208e-07 8.2703446e-07 4.109695e-07 8.09386e-07 1.2341528e-06 -1.774478e-07
7.013368e-07 1.0176624e-06 9.851652e-07 5.046849e-07 5.1672936e-07 -3.7167715e-07 8.7409956e-07 -1.783212e-10
-1.5048972e-09 -1.1886732e-09 8.0311274e-10 -7.1778095e-09 -2.058109e-09 -7.0486674e-09 -7.953513e-08 -1.8223702e-07
-1.0332741e-07 5.7084893e-08 -1.2233075e-07 5.6856214e-07 -3.9462504e-12 -3.4617204e-10 7.163256e-10 -4.2626605e-10
-5.8955308e-08 -4.3846875e-08 3.1062687e-08 2.0448217e-08 -7.76207e-08 -9.8272835e-08 2.6838217e-07 2.501635e-07
3.045129e-08 1.6982413e-15 -2.6906199e-07 -2.3936195e-07 -7.5096204e-07 -2.2864538e-07 -2.4989296e-07 -2.3198496e-07
00000000: 573e 8db3 3226 a5b4 55a9 34b4 da0c aeb4
00000010: 95c3 25b4 d479 02b5 eb67 6cb4 8756 2db5
00000020: 3b6a d1b2 b58d ec34 28f3 e2b4 0472 aa34
00000030: 0386 4035 891e 2a35 27c5 6734 c3f6 0135
00000040: 8686 1633 f77f d534 0de2 c034 12e8 46b5
00000050: 1251 23b4 975f 2db5 ce82 8cb4 a56c 9c35
00000060: 6fe9 6e35 80dc d334 0f88 a5b2 84ea b935
00000070: d99e 9635 101d 8735 7f81 0fb4 b840 b7b4
00000080: eba5 f2b4 1507 a035 8ea8 86b4 48d5 7832
00000090: 4371 cbb4 9726 abb4 7755 ba2f 6b5b 1634
000000a0: 3892 b3b2 8379 e2b4 f510 44af ddd4 ceb0
000000b0: b85e a3b0 9685 5b30 2fe6 eeb1 29d1 acb3
000000c0: 3f7a 24b3 b43f efb3 aad8 d3b3 4137 7233
000000d0: 8709 40b4 47c7 2f35 7ea0 10b5 f605 31b5
000000e0: aad8 8aac 624f beaf efe6 4430 b4ff f4b0
000000f0: e5a7 8cb3 f16b 1cb3 d441 fe32 492f 1db4
00000100: cd3a 0e34 2c8e 1132 2d81 2833 f5a4 aeb3
00000110: 352b 0735 ca82 7fb2 4fc8 b9b0 e63b c62e
00000120: fb5d 6cb1 c60f faad 21e0 04b1 a3dc 6eb1
00000130: 6b0e 9ab2 585a ebb2 5ca7 52b3 172f 26b4
00000140: f1a1 89b4 04f0 97b3 b345 5234 47ac 6935
00000150: a1bf 84b5 4503 6cb5 e43a 90b5 8f28 07b5
00000160: b04d 32b5 54c5 1cb6 9c3b ab35 177f 0936
00000170: 8278 1ab6 baf2 c5b3 13d4 a72f a004 69b0
00000180: 4675 8eaf 0f66 62b3 d540 8932 aad9 a431
00000190: 194e a6b2 1cf8 e9b2 6e21 b2b3 4762 3034
000001a0: 5cff 8b33 fe00 b432 b174 2c34 e1ab 9634
000001b0: be81 c034 0570 9934 63db c534 7822 1734
000001c0: 7361 2535 b30d a0b4 ffb0 43b3 1dea 0db4
000001d0: f133 5f34 32c7 2c31 f0bb 3733 07a8 7835
000001e0: 5f96 0735 ddf4 c235 c425 77b5 4f2b b7b5
000001f0: d5c5 a8b5 c4ed 9135 34b3 ad35 9a93 fb35
00000200: 7002 c0b4 9b45 9e34 ed87 1d36 f93c 2cb5
00000210: e77d 7735 0390 6535 da37 0836 6b61 48b5
00000220: 3a7a cf34 8836 5db5 5b89 b935 288e 0c36
00000230: 47ba b835 7074 cd34 0c43 dd35 4be9 feb4
00000240: 9f13 ae35 83b5 0e35 6ce6 3d35 ec0b 24b5
00000250: 780a 8835 e7ea 7e35 4c62 8035 3ab1 8135
00000260: 3ab1 8135 3ab1 8135 adeb 8235 658c d5b3
00000270: 54e5 c034 54e5 c034 0b96 3035 db33 3335
00000280: db33 3335 db33 3335 d126 18b2 ed72 2732
00000290: 0000 0000 0000 0000 8a00 1b35 51db 4035
000002a0: 83ab 95b4 2e36 15b5 c27c acb5 0f10 2134
000002b0: e79e 0536 adb5 e132 14b9 3bb4 778e bcb4
000002c0: 8c9f e634 9c0d 8cb1 7089 0935 4012 1335
000002d0: 8df8 da35 86e0 a5b4 b646 43b6 f202 7934
000002e0: b6b7 6235 3bcf c2b4 b560 2db5 7bc9 2335
000002f0: 9b4b fcb5 836f 9db3 cf09 c834 a64a 9435
00000300: 5769 9a35 d227 9334 ca44 8935 90b4 2835
00000310: 5dd2 2436 6b35 89b3 608d 0fb2 cc36 0131
00000320: a219 df31 0b20 4b33 dcc5 9833 bf5e 2233
00000330: 372a 03b4 69fa 37b4 b30c ea34 be46 e034
00000340: 7fd5 4835 c6ec 9d32 0d92 9734 6001 5e35
00000350: 38a3 dc34 9544 5935 2ba5 a535 7b88 3eb4
00000360: 7f43 3c35 9d96 8835 053a 8435 af79 0735
00000370: 5fb5 0a35 eb8a c7b4 aaa3 6a35 f510 44af
00000380: ddd4 ceb0 b85e a3b0 09c2 5c30 aea0 f6b1
00000390: a36e 0db1 bc30 f2b1 e6cc aab3 eeac 43b4
000003a0: d8e4 ddb3 812d 7533 055a 03b4 4b9f 1835
000003b0: aad8 8aac 624f beaf efe6 4430 9d57 eaaf
000003c0: 0c36 7db3 2652 3cb3 c969 0533 1ba6 af32
000003d0: 6eb0 a6b3 100a d3b3 2a16 9034 364e 8634
000003e0: 8cc9 0233 0cbe f426 9973 90b4 a881 80b4
000003f0: b895 49b5 9081 75b4 0729 86b4 8a17 79b4
